results/model.pth (torch, 89871 bytes, 8 tensors)

conv1.weight f4 [10, 1, 5, 5]
0	0xbdae1ee1	-0.085019834
1	0x3e891977	0.2677724
2	0x3e09d58f	0.13460372
3	0x3e829c20	0.2550974
4	0x3e424907	0.1897317
5	0x3d9e2899	0.07722587
6	0x3e2c4da1	0.16826488
7	0x3e0d563e	0.1380243
8	0x3e4014fd	0.18758006
9	0x3d8a9e29	0.06768448
10	0xbd90a8a3	-0.07063415
11	0xbd859a74	-0.065236
12	0xbc6a5782	-0.01430309
13	0xbd3dab39	-0.04630587
14	0x3e43c597	0.19118343
15	0xbd6f6f99	-0.058456037
16	0xbe4d770e	-0.20064947
17	0xbe8fff07	-0.28124258
18	0xbe54e67c	-0.20791048
19	0xbe35f2be	-0.1776838
20	0xbe27bfc3	-0.16381745
21	0xbdffd637	-0.1249203
22	0xbd98a643	-0.07453587
23	0xbdaa0d60	-0.08303332
24	0xbe8ef74a	-0.27923042
25	0x3e93ec70	0.28891325
26	0x3e9c65a8	0.30546308
27	0x3ec22e68	0.3792603
28	0x3e84277b	0.2581137
29	0xbde91d61	-0.11382557
30	0xbddafad4	-0.10692373
31	0x3ca6bcd9	0.020353721
32	0x3ea9c385	0.33156982
33	0x3e5f129c	0.21784443
34	0x3e934799	0.28765562
35	0xbe46eb45	-0.19425686
36	0x3da811f9	0.08206553
37	0xbdb341a5	-0.08752755
38	0x3e80b36f	0.25136897
39	0x3e348461	0.17628624
40	0xbe9d9386	-0.30776614
41	0xbdb55743	-0.088545345
42	0xbe68546d	-0.22688456
43	0xbd43b4af	-0.047779735
44	0x3be497b3	0.006976092
45	0xbe79413e	-0.24341294
46	0xbec0d9ff	-0.37666318
47	0xbe7fcdbf	-0.2498083
48	0xbd2f53de	-0.04280459
49	0xbd46a4a5	-0.04849686
50	0x3eb26000	0.34838867
51	0x3eba8c6e	0.36435264
52	0x3e27e960	0.16397619
53	0xbc85ffe6	-0.016357373
54	0x3e57ec04	0.21086127
55	0x3dedf521	0.1161902
56	0xbca81de0	-0.020522058
57	0x3e9884eb	0.29788908
58	0x3e9430a3	0.28943357
59	0x3e9273de	0.28604025
60	0xbe15eb47	-0.14640532
61	0x3c4aa937	0.0123694455
62	0x3df255a1	0.11832739
63	0x3e09e04c	0.13464469
64	0xbe05ea90	-0.1307776
65	0xbe1e59d3	-0.15463953
66	0x3e201233	0.15631942
67	0x3d1c0d49	0.038098607
68	0x3e0f74d5	0.14009412
69	0xbcdf090b	-0.027225992
70	0x3d224282	0.039614208
71	0x3d7d432a	0.06183163
72	0x3dfe4fb4	0.12417546
73	0x3dd1bdc3	0.10241272
74	0xbe840c4f	-0.2579064
75	0x3e0ebb22	0.13938573
76	0xbe0966b4	-0.13418084
77	0xbe406fb2	-0.18792608
78	0xbd674d3d	-0.056470145
79	0xbda0e96c	-0.07857022
80	0x3e3775ee	0.1791608
81	0xbdae9fa8	-0.08526546
82	0xbe5fb3b1	-0.2184589
83	0x3dba687b	0.09101959
84	0xbd6fc1cc	-0.05853443
85	0x3e446807	0.19180308
86	0x3e1519a1	0.14560558
87	0xbe11b032	-0.1422737
88	0x3d81392d	0.063097335
89	0x3dad02de	0.084478125
90	0xbd35fdf0	-0.044431627
91	0x3ce7cb3d	0.028295154
92	0x3e27f758	0.16402948
93	0x3e18c091	0.14917208
94	0x3ac25e6a	0.0014829163
95	0x3d70fc85	0.05883457
96	0x3ea66eea	0.32506496
97	0x3d7fba07	0.06243327
98	0x3e65c909	0.2243997
99	0x3e40f0d2	0.18841866
100	0xbe123068	-0.14276278
101	0xbe067c5f	-0.13133381
102	0x3e8ddf0a	0.27709228
103	0x3e16babd	0.14719673
104	0x3e607b49	0.2192203
105	0x3df1a2a2	0.11798598
106	0x3e5cd494	0.21565467
107	0x3ec3a4d1	0.38211682
108	0x3ecf599a	0.40498048
109	0xbd44939a	-0.047992326
110	0x3de6ef6e	0.11276136
111	0x3e6edbcc	0.23326033
112	0x3e78d807	0.24301158
113	0x3e5c0ada	0.21488515
114	0xbdd7f9d0	-0.10545695
115	0xbe128331	-0.14307858
116	0xbe1caaac	-0.15299481
117	0x3bad9991	0.0052978476
118	0x3e6c4607	0.23073588
119	0xbd984e10	-0.07436764
120	0x39d73ffe	0.00041055674
121	0xbe4a1119	-0.19733085
122	0xbe62bfee	-0.22143528
123	0xbd0a990d	-0.033837367
124	0x3e3b6843	0.18301491
125	0x3e86398b	0.26215777
126	0xbc2a7741	-0.010404409
127	0x3e322837	0.17398153
128	0x3e843bea	0.2582696
129	0x3dd6ddc8	0.1049152
130	0x3e333113	0.17499189
131	0x3e80424c	0.2505058
132	0x3e711406	0.23542795
133	0x3dd8b030	0.1058048
134	0xbe28f03e	-0.16497895
135	0xbe38b844	-0.18039042
136	0xbd9496c8	-0.07255322
137	0x3cecb1be	0.028893348
138	0xbd85e572	-0.06537904
139	0x3ddc5021	0.10757471
140	0x3c8f0d56	0.017462414
141	0xbd588e16	-0.05286988
142	0x3e1e22cd	0.15442963
143	0x3e4042bf	0.18775462
144	0x3e885c7d	0.26633063
145	0x3dab1909	0.083543845
146	0xbd874abe	-0.06606053
147	0x3e88b11e	0.2669763
148	0x3db56415	0.0885698
149	0x3ddabbb5	0.106803335
150	0xbe99f8c0	-0.30072594
151	0xbe7f4a0b	-0.24930589
152	0xbe1f2bda	-0.15544072
153	0x3d65057d	0.055913437
154	0x3eab36aa	0.33440143
155	0xbe89a987	-0.26887152
156	0xbe8539a9	-0.26020554
157	0x3dac9365	0.08426551
158	0x3e7c6fd0	0.24652028
159	0x3ea9cb59	0.33162954
160	0xbea2b95b	-0.3178204
161	0xbd5e7445	-0.054310102
162	0x3d35f58d	0.04442363
163	0x3e87b68c	0.2650646
164	0x3dc1aed8	0.09457177
165	0xbe846d3f	-0.25864598
166	0xbd817d36	-0.0632271
167	0x3e91953e	0.28434175
168	0x3ea9bca3	0.3315173
169	0x3e671284	0.22565657
170	0x3e44f8ee	0.19235584
171	0x3e905902	0.28192908
172	0x3e9960b3	0.29956588
173	0x3e3277a4	0.17428452
174	0xbda81e56	-0.08208911
175	0x3dcef7e9	0.10105879
176	0xbde9be1b	-0.11413213
177	0xbd9b6a17	-0.075885944
178	0xbe823234	-0.25428927
179	0xbe1bfc5b	-0.15232985
180	0xbe1285f6	-0.14308915
181	0x3de12343	0.10993054
182	0xbe836049	-0.25659397
183	0xbe8884b0	-0.26663733
184	0xbe04a736	-0.12954411
185	0xbda93e4e	-0.08263837
186	0x3d5b9805	0.053611774
187	0xbdafeb98	-0.08589858
188	0xbdeaabbe	-0.114585385
189	0x3c0e000d	0.008667004
190	0x3e51fca6	0.20506534
191	0xbda530da	-0.08065958
192	0x3e6ea5dc	0.23305458
193	0x3e9a86a2	0.30180842
194	0x3ead5d47	0.33860227
195	0xbd535a27	-0.051599648
196	0x3e43b69b	0.19112627
197	0x3d652149	0.055939946
198	0x3eb43f03	0.35204324
199	0x3cd42dc8	0.025900736
200	0x3e62b6f0	0.22140098
201	0x3e14326b	0.14472358
202	0x3d0c52c7	0.03425863
203	0xbdf5b89d	-0.11998103
204	0xbe118d3b	-0.14214031
205	0x3e6b0bb1	0.22953679
206	0x3e43d8f2	0.19125727
207	0x3d8e8b1e	0.06960128
208	0xbeb079c6	-0.34467906
209	0xbd29abb3	-0.04142351
210	0x3eb32cea	0.34995204
211	0x3ea823aa	0.3283971
212	0x3dfb89a8	0.12282115
213	0xbe957987	-0.2919428
214	0xbe5d695a	-0.2162222
215	0x3eadb538	0.3392732
216	0x3a3896fe	0.00070415426
217	0x3e57ee6b	0.21087043
218	0xbe73e868	-0.23819125
219	0xbe718b66	-0.23588333
220	0x3e6b06be	0.2295179
221	0xbc823cd0	-0.015898138
222	0xbb7d0822	-0.0038609584
223	0x3dd0a1c2	0.10187103
224	0x3dec4646	0.11536841
225	0x3e3fdae2	0.18735841
226	0x3b953865	0.004553842
227	0xbd871b8f	-0.06597053
228	0x3e9fff2f	0.31249377
229	0x3d521a98	0.051294893
230	0xbdac35cb	-0.08408698
231	0x3da1859c	0.07886812
232	0xbdd7d333	-0.1053833
233	0x3e26a5de	0.16274211
234	0x3e488810	0.19583154
235	0xbe4998a9	-0.19687141
236	0xbe5c8d87	-0.21538363
237	0xbdbe74ad	-0.09299598
238	0xbba4ec97	-0.0050330865
239	0xbb0fda4d	-0.0021950186
240	0xbe1c1162	-0.15241006
241	0xbdc81959	-0.0977046
242	0xbe96ee6f	-0.29478785
243	0xbe826950	-0.25470972
244	0xbe4d9278	-0.20075405
245	0x3e1691af	0.14704011
246	0x3e011642	0.12606147
247	0xbde2a34a	-0.11066301
248	0xbd97f6c2	-0.07420112
249	0xbc66a207	-0.014076716

conv1.bias f4 [10]
0	0x3d268305	0.040652294
1	0xbca51aca	-0.020154376
2	0x3e5c6ae6	0.21525154
3	0x3e0dbd6c	0.1384179
4	0x3df88b30	0.12135923
5	0x3d08f423	0.033435952
6	0x3e2cec08	0.16886914
7	0x3e5b342d	0.21406622
8	0xbdb68b3f	-0.08913278
9	0x3e232213	0.15930967

conv2.weight f4 [20, 10, 5, 5]
0	0x3ba8791b	0.00514139
1	0xbd800bac	-0.06252226
2	0x3cb14ca1	0.021642985
3	0xbd1e868e	-0.03870254
4	0x3d625907	0.055260684
5	0xbd6a9d93	-0.05727918
6	0xbccd2a0d	-0.025044465
7	0xbcff0d3a	-0.031134237
8	0xbca4e77e	-0.020129915
9	0x3c7f47ab	0.015581052
10	0xbd2be871	-0.04196972
11	0xbd9a72e0	-0.07541442
12	0xbdd1d8d6	-0.10246436
13	0xbccf17a0	-0.02527982
14	0xbd1b7c0b	-0.037960093
15	0xbd0260ef	-0.031830724
16	0xbd72ac3a	-0.05924628
17	0xbcd4d1fa	-0.02597903
18	0xbbeafad8	-0.007171016
19	0xbd0eedd8	-0.034894794
20	0xbd92adab	-0.07162031
21	0xbda93399	-0.082617946
22	0xbd978757	-0.07398861
23	0x3cb193c0	0.021676898
24	0xbd5d26ec	-0.053992197
25	0x3cbc40b9	0.02298008
26	0xbc744ce1	-0.0149109075
27	0xbd61d7d8	-0.055137485
28	0x3d5b3ca4	0.05352463
29	0x3d4f78a1	0.05065215
30	0x3b314a69	0.0027052409
31	0xbdc52d9a	-0.096278384
32	0xbdea4646	-0.11439185
33	0xbda94f83	-0.08267119
34	0xbdbde546	-0.09272246
35	0xbd620f5a	-0.05519042
36	0xbd9d5ab6	-0.07683317
37	0xbdb6be83	-0.08923056
38	0xbd84fd58	-0.06493634
39	0xbd8f8058	-0.070069015
40	0xbd9eb137	-0.07748645
41	0xbde5f302	-0.11227991
42	0xbde63c92	-0.112420216
43	0xbcc341dd	-0.023835117
44	0xbdcfb2c1	-0.101415165
45	0xbd229871	-0.03969616
46	0xbddeebe4	-0.10884836
47	0xbd3e40d9	-0.046448562
48	0xbd4dac8d	-0.050213385
49	0xbd9e2caa	-0.07723363
50	0x3dd78988	0.10524279
51	0xbd371a18	-0.04470262
52	0xbd10ccbb	-0.035351496
53	0x3d4572db	0.048205238
54	0x3d960f3c	0.073271245
55	0x3d744d9e	0.059644334
56	0xbd873a14	-0.066028744
57	0xbd9253ff	-0.07144927
58	0xbc987295	-0.018609324
59	0xbc6ac1e8	-0.014328457
60	0x3d4489cc	0.047982976
61	0xbdae05e6	-0.08497219
62	0xbd0c52fe	-0.034258835
63	0x3d90d4cb	0.07071837
64	0xbd4ef655	-0.05052789
65	0xbd0129b8	-0.031533927
66	0xbc982316	-0.018571418
67	0x3cf811a2	0.030281845
68	0x3d8f4084	0.06994727
69	0xbdea4fad	-0.11440978
70	0xbd110b5b	-0.03541122
71	0xbd9d372e	-0.0767654
72	0xbd5375f5	-0.051626164
73	0xbd1f37a2	-0.038871415
74	0xbcaee423	-0.021349018
75	0x3bf798fe	0.00755608
76	0xbd7047d8	-0.058662266
77	0xbdaae862	-0.08345105
78	0xbd93eb96	-0.07222669
79	0x3d800c02	0.0625229
80	0xbc9869bd	-0.018605107
81	0xbd22c6e3	-0.039740454
82	0xbcd26fec	-0.025688134
83	0xbc8451e0	-0.016152322
84	0xbd647532	-0.05577583
85	0xbd68aac1	-0.05680347
86	0x3cce2efb	0.025168886
87	0x3ce704f1	0.028200598
88	0xbc542b0f	-0.012949719
89	0xbd9cf648	-0.07664162
90	0x3bfbaba1	0.007680372
91	0x3cc53534	0.02407322
92	0x3d902d44	0.07039884
93	0xbc1b4c6d	-0.009478671
94	0x3c49fae1	0.012327881
95	0xbc246212	-0.010033147
96	0xbd559261	-0.05214155
97	0xbdb71fbf	-0.08941602
98	0xbc0ab464	-0.00846586
99	0xbb9d64a8	-0.004803259
100	0x3d5f56c5	0.05452611
101	0xbccb4607	-0.024813665
102	0xbdbb2a89	-0.09138972
103	0xbd5169a7	-0.05112615
104	0xbc731345	-0.014836137
105	0xbb6142aa	-0.003437201
106	0xbe04bdd9	-0.12963046
107	0xbda87810	-0.08226025
108	0xbd856596	-0.065135166
109	0xbcd03f93	-0.02542094
110	0x3cadbf9a	0.021209527
111	0xbda643c8	-0.08118397
112	0xbd68491d	-0.05671035
113	0x3d980c4c	0.074242204
114	0x3d498fe7	0.0492095
115	0xbd0e3b94	-0.034724787
116	0xbdd85fea	-0.10565169
117	0xbd2752f9	-0.040850613
118	0x3dea323d	0.114353634
119	0xbdbb8a15	-0.091571964
120	0xbdf0b756	-0.117537186
121	0xbd2615c5	-0.040548105
122	0x3d2264be	0.039646856
123	0x3d863a39	0.06554074
124	0xbdb7bf24	-0.08972004
125	0x3c62f1cc	0.013851594
126	0xbbaea37d	-0.005329548
127	0x3cb0dc72	0.021589492
128	0x3c0a5085	0.008442049
129	0xbc32a555	-0.010903676
130	0x3d814363	0.06311681
131	0xbd71f77a	-0.059073903
132	0xbcad43d2	-0.021150503
133	0xbcdce26b	-0.026963433
134	0x3cebf4b8	0.028803214
135	0x3cae0d16	0.021246474
136	0xbddddcc2	-0.10833122
137	0x3bb85645	0.0056255185
138	0xbbeeaeb2	-0.007284009
139	0xbda4ce1b	-0.08047124
140	0xbd60d210	-0.05488783
141	0xbe077773	-0.1322916
142	0xbd61e603	-0.055150997
143	0xbc2bbe47	-0.010482377
144	0xbbb90d0c	-0.0056473073
145	0xbd3f426b	-0.0466942
146	0xbd9e1af8	-0.07719988
147	0x3cfc1980	0.030773878
148	0x3d7c7a1e	0.061639898
149	0xbdbd6a46	-0.09248786
150	0x3d5ca4a3	0.053867947
151	0x3c7fdd7b	0.01561677
152	0xbdb00ec6	-0.08596568
153	0x3d376b7f	0.04478025
154	0xbbe424b1	-0.006962382
155	0x3c241151	0.010013894
156	0xbdb94af0	-0.09047496
157	0x3d7ba037	0.06143209
158	0x3de9193b	0.113817655
159	0x3e294355	0.16529591
160	0x3d129cf0	0.0357942
161	0xbaa464f3	-0.0012542292
162	0x3d61b0ac	0.055100128
163	0x3de4e642	0.11176731
164	0x3d7bb34e	0.061450295
165	0xbd0b0077	-0.03393599
166	0xbcea2c95	-0.028585711
167	0x3d89167a	0.0669374
168	0x3dbae4ca	0.09125669
169	0xbabb3647	-0.0014283144
170	0xbc4f5604	-0.012654785
171	0xbd38eac0	-0.04514575
172	0x3dfd0434	0.12354317
173	0x3cb7f199	0.02245407
174	0xbd70e396	-0.058810793
175	0x3cffa094	0.0312045
176	0xbdb7b009	-0.08969123
177	0x3ce63c92	0.028105054
178	0xbd9bf797	-0.076155834
179	0x3d10d999	0.035363767
180	0xbb991448	-0.004671607
181	0x3c84a07f	0.016189812
182	0x3b4b68f0	0.003103789
183	0x3dc4ed04	0.0961552
184	0xbc64c57b	-0.013963099
185	0xbda48173	-0.08032503
186	0x3c973286	0.018456709
187	0x3d944bfa	0.07241054
188	0x3d983e8a	0.074338034
189	0xbd3c7069	-0.04600564
190	0x3cf8d13b	0.030373206
191	0x3ce0f7b4	0.027461864
192	0xbcf13375	-0.029443482
193	0xbda5f5bd	-0.081035115
194	0x3caf62b6	0.021409374
195	0xbd555b71	-0.05208916
196	0x396c1e56	0.00022518015
197	0xbdf9f86b	-0.12205585
198	0xbc649f40	-0.013953984
199	0x3cb5edf3	0.02220819
200	0x3d9591df	0.07303213
201	0x3db41477	0.08792966
202	0xbd59c685	-0.05316784
203	0xbd4e9891	-0.050438467
204	0x395a8982	0.00020841326
205	0x3d53040d	0.051517535
206	0x3d2ba377	0.04190394
207	0xbd8753fe	-0.06607817
208	0x3c81f497	0.0158637
209	0x3d9c61a9	0.07635815
210	0x3e21b8ce	0.15793154
211	0x3dab90be	0.08377217
212	0xbdfb0201	-0.122562416
213	0x3d4ff34a	0.050769128
214	0x3dbe4635	0.09290735
215	0x3d572635	0.05252667
216	0x3cbe644c	0.023241185
217	0xbd9f2582	-0.07770826
218	0x3da61131	0.08108748
219	0x3e059c83	0.13047986
220	0x3e11334e	0.14179727
221	0xbd498833	-0.049202155
222	0xbd40bd2f	-0.04705542
223	0x3dfa682c	0.122269005
224	0x3dd28061	0.102783926
225	0x3d23f629	0.04002968
226	0x3d10d486	0.03535893
227	0xbc3e2587	-0.011605627
228	0x3d4d15cd	0.05006962
229	0xbd41cce6	-0.047314547
230	0x3b53f02d	0.00323392
231	0x3c1991d3	0.009373146
232	0x3b85850a	0.0040746974
233	0xbd4637c6	-0.048393033
234	0xbd79f4f8	-0.061024636
235	0x3c14d394	0.009083647
236	0xbd97a89e	-0.07405208
237	0xbdaafbec	-0.083488315
238	0xbd9c603f	-0.07635545
239	0xbd142c8f	-0.036175307
240	0xbd0a7afc	-0.033808693
241	0xbd80a92c	-0.06282267
242	0xbd4e4d6c	-0.050366804
243	0xbdccfb79	-0.10008902
244	0x3c69daac	0.014273327
245	0xbd36e899	-0.044655416
246	0xbd6ab7ce	-0.057304196
247	0x3ccc2965	0.024922082
248	0xbd6bf340	-0.05760503
249	0x3d0e664e	0.034765534
250	0x3a72b749	0.0009258879
251	0xbdca0f17	-0.098661594
252	0xbdb6b910	-0.089220166
253	0xbd60bc33	-0.05486698
254	0xbc95739d	-0.018243605
255	0xbda739bb	-0.08165308

conv2.bias f4 [20]
0	0x3cf9d029	0.030494766
1	0xbd612470	-0.05496639
2	0xbc91d775	-0.017802933
3	0xbd1d3cb8	-0.038387984
4	0xbd517879	-0.051140282
5	0xbc159082	-0.009128692
6	0x3c4e222b	0.0125813885
7	0xbd36fc45	-0.044674177
8	0xbd87c8be	-0.066300854
9	0x3d22d9ba	0.03975842
10	0xbd0bb979	-0.034112427
11	0xbda74059	-0.0816657
12	0xbcc504a2	-0.02405006
13	0xbbc2060d	-0.0059211315
14	0xbd6fc6bd	-0.05853914
15	0xbb3b6edd	-0.0028600015
16	0xbd28d988	-0.04122308
17	0xbca6a391	-0.020341666
18	0x3c4190ee	0.011814339
19	0x3b91738f	0.0044388245

fc1.weight f4 [50, 320]
0	0xbb480961	-0.0030523168
1	0xbd04e053	-0.032440495
2	0x3e02cddc	0.12773842
3	0x3d5c28e7	0.053749945
4	0xbd0f1e49	-0.03494099
5	0x3bc3e4b0	0.0059781894
6	0x3d1a9bb5	0.03774615
7	0x3c96b6ee	0.018397775
8	0xbcef8e3b	-0.029242625
9	0xbc8d1cf6	-0.017225724
10	0x3c62310c	0.013805639
11	0xbc0aedc5	-0.00847954
12	0x3bcee39f	0.0063137556
13	0x3db0dc37	0.08635753
14	0x3cb58186	0.022156488
15	0x3d2110fb	0.039322834
16	0xbc1e5100	-0.009662867
17	0xbd461f11	-0.04836947
18	0x3d803f2b	0.06262048
19	0x3cdfbdcf	0.027312187
20	0x3caf45c4	0.021395572
21	0xbd5531fc	-0.052049622
22	0x3da9a9d4	0.08284345
23	0x3d0e34ee	0.034718446
24	0x3d5ea721	0.054358605
25	0xbbe436ad	-0.0069645257
26	0x3d1130d4	0.035446957
27	0x3d9a9580	0.07548046
28	0xbd4d1245	-0.05006625
29	0xbd281c8f	-0.04104286
30	0x3c9c40e7	0.019073917
31	0xbd6f6f96	-0.058456026
32	0x3ceaf665	0.028681943
33	0x3cc7c7ab	0.024387201
34	0xbc591752	-0.013250189
35	0x3d3d1785	0.046165008
36	0xbc6c6c33	-0.014430094
37	0x3ce817c4	0.028331645
38	0xbd37735b	-0.044787746
39	0xbd9a65a4	-0.07538918
40	0xbd1fc646	-0.039007448
41	0xbb9fa57c	-0.004872022
42	0x3d59227c	0.053011402
43	0xbb7236ab	-0.0036958854
44	0xbd2806fa	-0.04102228
45	0x3d1a9357	0.03773817
46	0x3d8e4d94	0.069483906
47	0x3bf76354	0.0075496826
48	0xbc431aa0	-0.011908203
49	0x3d83cec2	0.0643592
50	0xbd36a6d4	-0.044592693
51	0x3c71dbef	0.014761909
52	0xbc600585	-0.013673191
53	0x3c056355	0.008141358
54	0xbd1c4170	-0.038148344
55	0xbcb98ec7	-0.02265109
56	0xbd66e256	-0.056368195
57	0x3b34f912	0.0027614278
58	0x3ceeeff0	0.029167145
59	0xbd5480ed	-0.051880766
60	0x3d4d5ff6	0.050140344
61	0x3dcf6d8b	0.101283155
62	0x3c73d868	0.014883138
63	0xbd1bb4fe	-0.038014404
64	0xbd38b88e	-0.04509788
65	0xbcb7378c	-0.022365354
66	0xbcbc3e4d	-0.022978926
67	0xba010bdc	-0.00049227267
68	0xbd659d36	-0.05605813
69	0xbc0ffde7	-0.008788562
70	0xbcf8ed00	-0.030386448
71	0xbd26bb3b	-0.0407059
72	0xbcf1e988	-0.029530302
73	0x3d4e3b42	0.05034948
74	0xbb6b4c24	-0.0035903538
75	0xbd852e34	-0.06502953
76	0x3b69ae59	0.0035656898
77	0x3db721f7	0.08942025
78	0xbc2c64fb	-0.0105221225
79	0xbdcdeec2	-0.10055305
80	0xbd22d629	-0.03975502
81	0xbca66f71	-0.020316811
82	0xbd36c7fe	-0.04462432
83	0xbb460dd5	-0.0030220647
84	0xbbb6bca4	-0.005576687
85	0x3d19c722	0.037543423
86	0x3be24957	0.0069057154
87	0xbd636a27	-0.055521157
88	0x3ca1fa74	0.019772746
89	0x3d4e6f89	0.050399337
90	0x3d53ae64	0.051679984
91	0xbd011226	-0.03151145
92	0x3ca0bf72	0.019622538
93	0x3c9d4d98	0.019202039
94	0xbda88089	-0.08227641
95	0xbdba862b	-0.09107622
96	0x3c8994f8	0.016794667
97	0x3a84d861	0.0010135287
98	0x3ccc1ad3	0.024915135
99	0x3d3fd19d	0.046830762
100	0xbcecdc12	-0.028913531
101	0xbd03c455	-0.03216966
102	0x3d7d2bfa	0.061809517
103	0x3d312a06	0.043252967
104	0x3d0d10db	0.034439903
105	0x3d4ad368	0.04951802
106	0x3c0e9a55	0.008703788
107	0x3d1dd9db	0.03853784
108	0x3d27b039	0.040939543
109	0x3d7251a0	0.059159875
110	0x3d7eb3f6	0.062183343
111	0x3d045657	0.032308903
112	0x3bbd8753	0.005783954
113	0xbbca43fd	-0.0061726556
114	0x3bb25b4c	0.0054430123
115	0x3d397263	0.045275103
116	0xbc2e4c7c	-0.0106383525
117	0x3d129734	0.03578873
118	0x3d090bb3	0.033458423
119	0x3cc7ce73	0.024390435
120	0xbd09b57f	-0.033620354
121	0xbcd78146	-0.02630676
122	0x3c526659	0.012841784
123	0x3c01c5b0	0.0079206675
124	0xbe2ddab6	-0.16977963
125	0xbd9627a0	-0.073317766
126	0x3d11e9ac	0.035623237
127	0xbd87dd2c	-0.06633982
128	0x3d27f4c8	0.041004926
129	0x3d415271	0.047197763
130	0x3ce5acf6	0.028036576
131	0x3cf51c69	0.029920774
132	0x3cc8e857	0.02452485
133	0xbd013580	-0.031545162
134	0xbc644003	-0.013931277
135	0x3d2749bf	0.040841814
136	0x3a0797b1	0.0005172445
137	0x3ce369d7	0.02776043
138	0xbc0b5461	-0.008504004
139	0xba576be7	-0.0008217678
140	0xbcbe6e5e	-0.023245987
141	0x3b975a76	0.004618938
142	0x3d050004	0.032470718
143	0x3d517f16	0.05114659
144	0xbc54709f	-0.012966304
145	0xbc8ee317	-0.01744227
146	0x3d586a0f	0.05283552
147	0xbc2fb4c2	-0.010724248
148	0xbcd79108	-0.026314273
149	0x3b95d1d3	0.004572132
150	0x3d089f0c	0.033354804
151	0x3b87daf1	0.004145973
152	0xbd10123a	-0.035173632
153	0xbce3de9b	-0.027816107
154	0xbbaa44a2	-0.00519617
155	0xbba7ecef	-0.00512468
156	0xbca3d0f1	-0.019997092
157	0x3ca86df6	0.020560246
158	0xbceffdb7	-0.029295785
159	0xbbbdf302	-0.005796791
160	0xbd24fd2e	-0.040280513
161	0xbb15b604	-0.0022844085
162	0x3d2e8107	0.04260352
163	0xbcad9da4	-0.021193333
164	0xbd4e6217	-0.050386515
165	0x3d54444d	0.05182295
166	0xbcacbdc5	-0.021086583
167	0x3d03ee2f	0.03220957
168	0x3d61d14b	0.055131238
169	0xbcc89b9f	-0.024488268
170	0x3a6d95e0	0.00090631656
171	0xbce660b5	-0.028122285
172	0x3d7ebef8	0.06219384
173	0xbd44a4c6	-0.048008703
174	0xbc2668cb	-0.0101568205
175	0xbd3cab39	-0.04606173
176	0x3cae483f	0.021274684
177	0x3cee9f80	0.02912879
178	0x3da5c466	0.08094101
179	0xbc9c3cf2	-0.01907203
180	0x3d059613	0.032613825
181	0xbd06cba9	-0.03290907
182	0x3d0700e9	0.032959852
183	0xbc89a8e0	-0.016804159
184	0xbc80effd	-0.015739435
185	0x3d2b9cc8	0.041897565
186	0xbc9ec070	-0.01937887
187	0xbd3d3450	-0.046192467
188	0xbd6a8607	-0.057256725
189	0xbda202c5	-0.079106845
190	0xbda760f7	-0.081727915
191	0xbd80ce91	-0.062893994
192	0x3b234d1b	0.0024917785
193	0x3d5403e6	0.05176153
194	0x3ca3c620	0.019991934
195	0x3c5dc7e1	0.013536424
196	0xbcbbd027	-0.022926403
197	0xbd1e0631	-0.038580123
198	0x3bb2a992	0.0054523433
199	0xbc454905	-0.012041335
200	0x3d073101	0.03300572
201	0x3b3d16bb	0.002885266
202	0x3c271946	0.010198897
203	0xbcced007	-0.02524568
204	0xbdc0ce95	-0.094144024
205	0x3c9da077	0.019241555
206	0x3d94e000	0.07269287
207	0x3d0f895c	0.035043105
208	0x3db7d278	0.089756906
209	0x3c506015	0.01271822
210	0x3d60528e	0.05476623
211	0x3d328c1c	0.04359065
212	0xbc94843e	-0.018129464
213	0x3b1009f0	0.002197858
214	0x3bc2b9e1	0.0059425686
215	0xbc2b74aa	-0.010464827
216	0xbce8fa04	-0.02843953
217	0x3c8549ae	0.016270485
218	0xbc33be36	-0.010970643
219	0xbd39c72e	-0.04535597
220	0x3d27b8ff	0.04094791
221	0x3d048daa	0.032361664
222	0xbd84ee04	-0.064907104
223	0xbd8f7cff	-0.07006263
224	0x3cb62785	0.022235641
225	0xbbce0122	-0.006286756
226	0x397b1a9c	0.00023947138
227	0xbd21a896	-0.039467417
228	0xbd701660	-0.05861509
229	0xbc294323	-0.010330948
230	0xbb874498	-0.00412805
231	0xbd805c08	-0.062675536
232	0xbd66cb4b	-0.05634622
233	0xbcbf35c7	-0.023341073
234	0xbd40de0f	-0.04708677
235	0xbb924394	-0.0044636223
236	0x3d50777e	0.050895207
237	0x3b924a67	0.004464436
238	0xbdaf395a	-0.08555861
239	0xbd867680	-0.06565571
240	0xbc9ce2ba	-0.01915108
241	0x3d839f89	0.06426913
242	0x3bc4659f	0.0059935595
243	0x3d841654	0.06449571
244	0xbda55b12	-0.08074011
245	0xbd188879	-0.037239525
246	0x3c98ede6	0.018668126
247	0xbcc4a9c8	-0.02400674
248	0xbd250ceb	-0.040295523
249	0x3c0adf6e	0.008476121
250	0xbcac63ee	-0.021043744
251	0xbdfe61e6	-0.124210164
252	0xbda1ecd1	-0.07906497
253	0x3c6fec5d	0.014643756
254	0xbdbfe276	-0.09369366
255	0xbda5fde4	-0.081050664

fc1.bias f4 [50]
0	0x3d5cc31d	0.053897012
1	0x3ce7f928	0.02831705
2	0x3a890e11	0.0010456463
3	0xbd25b468	-0.040455252
4	0x3c8d068e	0.01721504
5	0xbaf169e7	-0.0018418402
6	0x3d05651f	0.03256714
7	0x3d0b49d0	0.03400594
8	0xbb43db22	-0.0029885252
9	0xbc30e698	-0.010797165
10	0x3a98b579	0.0011650763
11	0xbd05b87a	-0.032646634
12	0x3d82dfba	0.06390329
13	0x3c867210	0.016411811
14	0x3d6dee83	0.05808879
15	0xbcd9a1f3	-0.026566481
16	0x3a3752ae	0.0006993216
17	0x3d492786	0.049109958
18	0x3ca15719	0.019694852
19	0x3d9cac53	0.07650056
20	0x3d8c2bf0	0.06844318
21	0x3c0e36ca	0.008680055
22	0x3d2cd0d7	0.042191353
23	0xbb4e7a56	-0.0031506023
24	0xbd1d2a1b	-0.038370233
25	0xbc6eb110	-0.014568582
26	0xbd18486a	-0.037178434
27	0x3d82c218	0.06384677
28	0x3c055b4d	0.008139444
29	0xbd3e0379	-0.04639003
30	0xbd069eef	-0.032866415
31	0x3d4e9016	0.05043038
32	0xbb69b305	-0.0035659682
33	0xbd06f5da	-0.032949306
34	0x3d733914	0.059380606
35	0x3be0d956	0.006861846
36	0x3afaca89	0.0019133847
37	0x3d912201	0.07086564
38	0x3d36b059	0.044601772
39	0xbd80ddc7	-0.06292301
40	0x3a121aef	0.00055734714
41	0x3b92c800	0.0044794083
42	0xbd87ef11	-0.06637395
43	0xbcbf1c47	-0.023328913
44	0x3d858f17	0.06521433
45	0x3c8b16b5	0.016978601
46	0x3d789072	0.06068463
47	0x3bc4cd97	0.0060059535
48	0xbba62a06	-0.0050709276
49	0xbbbf46d0	-0.005837299

fc2.weight f4 [10, 50]
0	0xbe6a521f	-0.22882889
1	0xbe31a579	-0.17348279
2	0xbe058da1	-0.13042308
3	0xbdfd859f	-0.12379002
4	0x3c8afe9b	0.016967108
5	0xbc9efc48	-0.019407406
6	0xbdfb45b7	-0.122691564
7	0xbe113638	-0.14180839
8	0xbbcfffe2	-0.0063476423
9	0xbd6234a2	-0.055225976
10	0x3d6780a3	0.056519162
11	0xbd19dc6d	-0.03756373
12	0x3e661104	0.22467428
13	0x3e962723	0.29326734
14	0x3e22339c	0.1584
15	0xbdf8b12e	-0.12143169
16	0x3e156e65	0.14592893
17	0xbe6eef55	-0.23333485
18	0xbe2ad155	-0.16681416
19	0xbe3baad1	-0.1832688
20	0xbe2bcc47	-0.16777144
21	0xbe421efb	-0.1895713
22	0xbe138868	-0.14407504
23	0xbe646da0	-0.22307444
24	0x3e1ec86b	0.15506141
25	0x3d570216	0.052492224
26	0xbda7e0eb	-0.081971966
27	0xbdee8be0	-0.11647773
28	0x3e1ffeca	0.15624538
29	0x3d05e036	0.032684527
30	0xbe23d0ec	-0.15997666
31	0x3e2a9849	0.16659655
32	0x3d4d33df	0.050098296
33	0xbca7ad52	-0.020468388
34	0xbd802877	-0.06257718
35	0xbe3bacbd	-0.18327613
36	0xbe07b43e	-0.1325235
37	0xbe247254	-0.16059238
38	0x3e03c8fb	0.12869637
39	0xbd3a946a	-0.045551695
40	0x3dc00d19	0.09377498
41	0x3e9cfe99	0.30662993
42	0xbd7a577c	-0.061118588
43	0xbd8db2e2	-0.06918885
44	0x3dfe0046	0.12402396
45	0x3d3b0b75	0.045665223
46	0x3e3e4a87	0.18583117
47	0x3e6d7fcc	0.23193282
48	0xbe11bfe1	-0.14233352
49	0x3e015d17	0.12633167
50	0x3e471485	0.19441421
51	0x3e2b3f66	0.16723403
52	0xbe6e3c0f	-0.23265098
53	0x3e1b89a6	0.15189227
54	0xbd18dc69	-0.037319575
55	0xbe36a3f7	-0.17835985
56	0x3b6a6ee2	0.0035771658
57	0x3d0c6b3c	0.034281954
58	0xbe23dc7d	-0.16002078
59	0xbd2759ec	-0.04085724
60	0x3d9b13de	0.07572149
61	0xbe6470a7	-0.22308598
62	0x3d63b58e	0.055593066
63	0xbd41a0f2	-0.04727263
64	0xbe6ed325	-0.23322733
65	0x392bb3a9	0.0001637476
66	0xbe2eade2	-0.17058519
67	0x3e0f5bc8	0.13999856
68	0x3e1d0bba	0.15336505
69	0x3e74da8e	0.23911497
70	0x3e1122d0	0.14173436
71	0xbe82dcf4	-0.255592
72	0xbe919139	-0.2843111
73	0x3e20aa4a	0.1568996
74	0x3d49c9db	0.04926477
75	0x3eac6ddd	0.3367757
76	0x3e1fdb12	0.15610912
77	0x3e2f7523	0.17134528
78	0xbe2c3ca2	-0.16820005
79	0xbe0685e9	-0.1313702
80	0x3e219257	0.1577848
81	0xbc5f04c8	-0.01361198
82	0xbe240b3a	-0.16019908
83	0xbe2524c1	-0.16127302
84	0x3d3b9110	0.04579264
85	0x3e53fe92	0.2070258
86	0x3d617b75	0.05504938
87	0x3e48db49	0.196149
88	0x3c073337	0.008251957
89	0xbe45e1e8	-0.19324458
90	0x3e0fd738	0.14046943
91	0xbdeddea5	-0.11614732
92	0xbdfdd5f7	-0.12394326
93	0x3e80e785	0.25176635
94	0xbe5280cf	-0.20556949
95	0x3d004ec8	0.03132513
96	0x3dc6c221	0.09704996
97	0xbdc2c819	-0.09510822
98	0xbd4c63b2	-0.049899764
99	0xbe1f1fe2	-0.15539506
100	0xbe3b1927	-0.18271314
101	0x3d50c67d	0.050970543
102	0x3df0872a	0.117445305
103	0x3cd2eda2	0.025748078
104	0x3dd6d6b8	0.10490173
105	0x3cd65f2c	0.026168428
106	0x3e1892c6	0.1489974
107	0x3e0a838c	0.13526744
108	0x3ddf9bd3	0.10918393
109	0x3e3f072e	0.18655083
110	0xbbc90749	-0.0061349017
111	0x3e08a954	0.13345844
112	0x3aa3a3fa	0.0012484782
113	0xbd0ae0a0	-0.033905625
114	0xbda3710d	-0.07980547
115	0xbe08b842	-0.13351539
116	0xbdf771bf	-0.12082242
117	0x3e0f2910	0.13980508
118	0xbe07d7fe	-0.13265988
119	0xbe514f39	-0.20440377
120	0xbdbe0b41	-0.0927949
121	0xbdacecb4	-0.08443585
122	0xbe145672	-0.14486101
123	0x3e374631	0.1789787
124	0xbdd97fa0	-0.10620046
125	0x3da725b3	0.081614874
126	0xbe0ec5ce	-0.13942644
127	0xbdc3a46a	-0.09552844
128	0x3c3a2c95	0.011363168
129	0xbdd26d63	-0.1027477
130	0x3e0ecd36	0.1394547
131	0x3db68e66	0.08913879
132	0xbe0c15d9	-0.13680209
133	0xbe271755	-0.16317494
134	0x3e13b40c	0.14424151
135	0xbdc96982	-0.09834577
136	0x3e1b70f5	0.15179808
137	0x3e386d6c	0.18010491
138	0xbe0f0518	-0.13966787
139	0xbd63b8d9	-0.055596206
140	0x3d3b96b6	0.045798026
141	0x3e5c5148	0.21515381
142	0x3e4e9fdd	0.2017817
143	0xbd843a68	-0.064564526
144	0xbddd9100	-0.10818672
145	0x3de02ce0	0.10946059
146	0x3dd0da09	0.10197837
147	0x3e4413c7	0.1914817
148	0x3dceb285	0.10092644
149	0x3d873d26	0.0660346
150	0x3c938f37	0.018012626
151	0xbe41f80e	-0.18942282
152	0x3e05358c	0.13008708
153	0x3da5abb9	0.08089394
154	0xbd913063	-0.07089307
155	0x3d31d3df	0.043414947
156	0xbe039bda	-0.12852421
157	0x3e300501	0.17189409
158	0xbd9bd0fe	-0.076082215
159	0x3b535008	0.0032243747
160	0x3adbdd98	0.0016774414
161	0xbddec8e9	-0.10878164
162	0xbe2974a7	-0.16548406
163	0xbda26a99	-0.07930488
164	0xbd6aaf80	-0.057296276
165	0x3e30b99f	0.17258309
166	0x3c9e3887	0.019314064
167	0x3e349981	0.17636682
168	0x3e04f2d6	0.1298326
169	0xbe1589b7	-0.14603315
170	0xbe26f429	-0.16304077
171	0xbdb15920	-0.08659577
172	0x3dbdef09	0.09274108
173	0xbdff057f	-0.1245222
174	0x3e221f5e	0.15832278
175	0xbe285643	-0.16439156
176	0xbdc7cb15	-0.09755532
177	0x3e45b52e	0.19307396
178	0xbdcf1c0a	-0.1011277
179	0x3e0ba5ba	0.13637438
180	0x3e1a4fc3	0.15069489
181	0x3e09da0c	0.13462085
182	0x3e41c84d	0.18924065
183	0xbb80bce2	-0.0039287666
184	0xbe3aa02e	-0.18225166
185	0xbe0ac2da	-0.13550892
186	0x3df59b34	0.11992493
187	0x3e2b2f84	0.16717345
188	0xbe40f196	-0.18842158
189	0x3e82be64	0.25535882
190	0xbd0c788f	-0.03429466
191	0xbd1b2f47	-0.037886884
192	0xbdcecded	-0.10097871
193	0xbda7ad05	-0.08187298
194	0x3d3af1a7	0.045640614
195	0x3df5f65f	0.12009882
196	0xbd7ca43d	-0.061680067
197	0xbd25a3c7	-0.040439393
198	0x3e158be0	0.1460414
199	0x3dbbdfef	0.09173571
200	0x3e47e293	0.19520025
201	0x3e2ec35b	0.1706671
202	0x3e291ada	0.1651415
203	0xbda58e06	-0.080837294
204	0x3e01786e	0.12643597
205	0xbe9752e6	-0.29555434
206	0x3e6eb5d1	0.23311545
207	0x3e0ca231	0.13733746
208	0x3dcb2260	0.09918666
209	0xbdbf3146	-0.0933557
210	0x3e902dd8	0.28159976
211	0x3e7029b0	0.23453403
212	0xbd8601cd	-0.06543312
213	0xbd130c17	-0.0359002
214	0xbdf87746	-0.121321246
215	0xbdf16538	-0.11786884
216	0xbe56fee4	-0.2099567
217	0xbe45d960	-0.19321203
218	0x3e4c13f5	0.19929488
219	0x3dc5b230	0.09653127
220	0x3e0574b2	0.13032797
221	0x3e39f8b9	0.18161286
222	0x3d791080	0.06080675
223	0xbdc963eb	-0.09833511
224	0xbd5d97e8	-0.054099947
225	0xbccb54d5	-0.024820725
226	0x3cfa6bc5	0.030568967
227	0x3e1ffc8e	0.15623686
228	0xbe67363a	-0.2257928
229	0xbe392676	-0.18081078
230	0xbe1abe3d	-0.15111633
231	0xbe4159e2	-0.18881944
232	0xbd362ceb	-0.04447643
233	0x3e608801	0.21926881
234	0x3e661279	0.22467984
235	0x3e330015	0.174805
236	0xbdf9a0f3	-0.12188902
237	0xbdc23d0c	-0.094843
238	0xbcf28204	-0.029603012
239	0x3b3802d0	0.0028077848
240	0xbe2eb29a	-0.17060319
241	0x3d93d852	0.07218994
242	0xbd590684	-0.05298473
243	0xbe0c44fa	-0.13698187
244	0x3e5b0d52	0.213918
245	0xbcec2179	-0.028824555
246	0x3b99e1dd	0.0046961145
247	0xbcbe980e	-0.023265865
248	0xbe1a4ae9	-0.15067638
249	0xbe7b88cf	-0.24563907
250	0xbc35cef0	-0.011096701
251	0x3df30c52	0.11867584
252	0xbdfc7e31	-0.123287566
253	0xbe129852	-0.14315918
254	0x3e288f3c	0.1646089
255	0xbd4fa765	-0.05069675

fc2.bias f4 [10]
0	0x3da9bfe6	0.08288555
1	0x3e05085d	0.12991472
2	0xbda35270	-0.07974708
3	0xbe164aa0	-0.14676905
4	0xbdab8320	-0.083746195
5	0xbd64461b	-0.05573092
6	0xbc797efa	-0.0152280275
7	0xbd877821	-0.0661471
8	0x3e6e7a0e	0.23288748
9	0x3d9760a2	0.07391478
