results/model.pth (torch, 89871 bytes, 8 tensors)

conv1.weight f4 [10, 1, 5, 5]
0	0xbe307f43	-0.17236046
1	0xbcd253ba	-0.02567469
2	0xbca95f04	-0.02067519
3	0xbe241aa5	-0.16025789
4	0x3e14109e	0.14459464
5	0xbdcd7399	-0.10031814
6	0x3dbb336a	0.09140666
7	0x3dcc9bba	0.0999064
8	0x3e2aba2b	0.1667258
9	0x3e9395d8	0.2882526
10	0x3ea002c2	0.31252104
11	0x3de7245c	0.11286232
12	0x3e874a37	0.2642381
13	0x3ee3ebe4	0.44515908
14	0x3ec4b426	0.38418692
15	0x3e4c356a	0.19942251
16	0x3d726867	0.059181597
17	0x3e3d9ea7	0.18517552
18	0x3ebd58ae	0.3698172
19	0x3e846cf5	0.25864378
20	0xbd3cb2ac	-0.046068832
21	0xbcd9b292	-0.026574407
22	0xbe55aa7d	-0.20865817
23	0xbd9369e4	-0.071979314
24	0x3e1679ce	0.14694902
25	0xbe20cd69	-0.15703358
26	0xbe38a250	-0.18030667
27	0xbd6ddd80	-0.058072567
28	0x3d847644	0.0646787
29	0xbe4f15e8	-0.202232
30	0x3e4a8e0b	0.19780748
31	0xbe6e000a	-0.23242202
32	0x3b117835	0.0022196893
33	0xbd4b4160	-0.049622893
34	0xbd548259	-0.05188212
35	0x3eb62086	0.35571688
36	0x3e517e9b	0.20458452
37	0xbe04c401	-0.12965395
38	0x3e60e43a	0.21962062
39	0x3e8c5954	0.27411902
40	0x3e8c396a	0.27387553
41	0x3d5b165e	0.053488128
42	0xbe2a8755	-0.16653188
43	0xbe17898a	-0.1479856
44	0x3e3cb477	0.18428217
45	0xbd02c5c4	-0.031926885
46	0xbe032da5	-0.12810381
47	0x3df0903a	0.11746259
48	0xbdefa457	-0.11701267
49	0xbe3d9159	-0.18512477
50	0xbd0cefc2	-0.03440834
51	0xbe924865	-0.28570858
52	0xbd8dd777	-0.06925862
53	0x3d28c025	0.04119887
54	0x3e3a2012	0.18176296
55	0xbe4536ea	-0.1925923
56	0xbe5385a6	-0.20656452
57	0xbe82c8e0	-0.2554388
58	0xbd7bd02a	-0.061477818
59	0x3e64bdfb	0.22338097
60	0xbe3bf075	-0.18353446
61	0xbe09abe1	-0.13444473
62	0xbd9d8290	-0.076909184
63	0x3dd4a9f3	0.10383978
64	0x3eb945aa	0.36185962
65	0xbe2dbc96	-0.16966471
66	0xbe69bd63	-0.22826152
67	0xbe742311	-0.23841502
68	0x3e444035	0.19165118
69	0x3ead181b	0.33807454
70	0xbe223c0a	-0.15843216
71	0xbe3efd92	-0.18651417
72	0xbe31f3fd	-0.1737823
73	0x3dedb579	0.11606879
74	0x3eb781d1	0.3584123
75	0x3d98d03f	0.07461595
76	0xbb6c6854	-0.0036072927
77	0x3e4433d0	0.1916039
78	0x3e91dc6c	0.2848848
79	0x3dc4f557	0.09617107
80	0xbd77124c	-0.060320184
81	0xbdf846f6	-0.1212291
82	0x3e2102ab	0.15723674
83	0x3ec99a26	0.39375418
84	0x3b47c27c	0.0030480912
85	0xbea38946	-0.3194067
86	0xbe1e00fd	-0.15430064
87	0x3eb7d3bd	0.3590373
88	0x3e7702ab	0.24122111
89	0x3d4f7a0f	0.050653514
90	0xbe702bc7	-0.234542
91	0xbdbdb674	-0.09263316
92	0x3eae1bdc	0.3400563
93	0x3eeb0161	0.4589949
94	0x3e446055	0.19177373
95	0xbd8cd538	-0.06876606
96	0x3e4b9500	0.19881058
97	0x3e5c738b	0.21528451
98	0x3e70814d	0.23486824
99	0x3d952be4	0.07283762
100	0xbd5947d4	-0.053047016
101	0x3d703b7b	0.058650475
102	0x3ed89a5c	0.42305267
103	0x3eb59cce	0.35471195
104	0x3eae526c	0.34047258
105	0x3e47d936	0.19516453
106	0x3d7e34f2	0.06206221
107	0x3ca01040	0.019538999
108	0x3ea4a56f	0.32157466
109	0x3ec721e1	0.38893035
110	0xbdcee733	-0.101026915
111	0xbe12525c	-0.1428923
112	0xbdd658ce	-0.10466157
113	0xbdb2b56e	-0.08726011
114	0xbe638e2b	-0.22222202
115	0xbe80821d	-0.2509927
116	0xbc9f00a4	-0.019409485
117	0xbeb16fe1	-0.3465567
118	0xbeaa97c4	-0.33318913
119	0xbe9fd0fd	-0.31214133
120	0x3ce65340	0.028115869
121	0xbe161581	-0.1465664
122	0xbe4bb5c2	-0.19893554
123	0xbd8bcd9f	-0.068263285
124	0xbe0112bb	-0.12604801
125	0x3d8d50fc	0.06900212
126	0x3e0e25ca	0.13881603
127	0x3d7a42ff	0.06109905
128	0x3c812c54	0.015768208
129	0xbdb86bd3	-0.09004941
130	0x3e2cc2f0	0.16871238
131	0xbdc75194	-0.09732357
132	0x3e03f5ed	0.12886782
133	0xbe56354a	-0.20918766
134	0xbcc41b19	-0.023938702
135	0x3a7fed61	0.000976285
136	0x3e2ab16d	0.16669245
137	0xbd8745a0	-0.06605077
138	0xbdfa6bb2	-0.122275725
139	0xbe12c527	-0.1433302
140	0x3e1f75bf	0.1557226
141	0xbc804a25	-0.015660355
142	0xbc81ffbc	-0.015869014
143	0xbd8a3014	-0.067474514
144	0xbcdee414	-0.027208365
145	0x3e838672	0.2568851
146	0x3da4e44b	0.08051356
147	0xbe4668e4	-0.1937595
148	0x3e379de6	0.17931327
149	0xbe0b2daa	-0.13591638
150	0xbca1ce55	-0.019751707
151	0x3d13cc5f	0.036083575
152	0x3da71afe	0.08159445
153	0xbd9d7e83	-0.07690146
154	0xbea70b8e	-0.32626003
155	0x3d401bab	0.046901386
156	0x3de7f55d	0.11326096
157	0x3e3ee53f	0.18642138
158	0x3dc538f0	0.096300006
159	0xbe7fb15f	-0.24970005
160	0x3dd7452e	0.10511242
161	0x3dabb15d	0.08383439
162	0x3d8c8d08	0.06862837
163	0x3de259f5	0.11052314
164	0x3e23ec4d	0.1600811
165	0xbe71726f	-0.23578809
166	0xbe858f11	-0.26085714
167	0xbdbb4f65	-0.09146003
168	0xbdc9e6d8	-0.09858483
169	0x3ea9fcd5	0.33200708
170	0x3d799c40	0.060940027
171	0xbd6e8036	-0.05822774
172	0x3e4bd4e3	0.19905429
173	0x3e88c2b8	0.2671106
174	0x3e8faf93	0.2806364
175	0x3c535d0c	0.012900602
176	0x3d93f797	0.072249584
177	0xbe1f9f11	-0.15588023
178	0xbeb36cf4	-0.35044062
179	0xbebe01aa	-0.37110645
180	0x3e853f55	0.2602488
181	0xbe3ba6b6	-0.18325314
182	0xbe7ddd2b	-0.247914
183	0x3d2f32a2	0.042772897
184	0xbdcac563	-0.0990093
185	0x3e7a6899	0.24453963
186	0x3ea3a6f5	0.31963316
187	0x3ec5af1a	0.38610154
188	0x3cacca89	0.02109267
189	0x3e137dc7	0.14403449
190	0x3e4c6b29	0.19962753
191	0x3d523bdc	0.051326618
192	0x3e13fbee	0.14451572
193	0x3e5a55eb	0.21321838
194	0x3dc55711	0.09635747
195	0x3a5edee9	0.0008501844
196	0xbcef4b81	-0.029210808
197	0x3e24bfd4	0.16088802
198	0x3e3d047f	0.18458746
199	0x3e553651	0.20821501
200	0xbe0964da	-0.13417378
201	0xbca7fb34	-0.020505525
202	0xbe9018cb	-0.28143916
203	0x3da6b578	0.08140081
204	0xbcf0dc66	-0.02940197
205	0xbdef915e	-0.116976485
206	0xbe1fab99	-0.15592803
207	0x3e0a5665	0.1350952
208	0x3cd58428	0.026063994
209	0x3e4194dc	0.18904442
210	0xbe58a579	-0.21156873
211	0xbd8a53c6	-0.0675426
212	0xbcd63056	-0.026146095
213	0x3e630062	0.22168115
214	0xbc7fac50	-0.015605047
215	0xbe5ab517	-0.21358143
216	0x3e79c696	0.24392161
217	0x3e85c7cd	0.26128998
218	0x3ced4a15	0.02896599
219	0x3e177199	0.14789428
220	0x3e103a50	0.14084744
221	0x3ea6a476	0.3254735
222	0x3df11f80	0.11773586
223	0x3e4eecc2	0.20207503
224	0x3e16a804	0.1471253
225	0xbe0c9ebb	-0.13732426
226	0xbe4a3aed	-0.19749041
227	0xbe639145	-0.22223385
228	0x3de2df0b	0.11077698
229	0xbe64a9ff	-0.22330473
230	0xbd146906	-0.03623297
231	0xbe3cb6a3	-0.18429045
232	0xbd5ad66e	-0.053427152
233	0x3d818a4c	0.06325206
234	0xbe2b5e87	-0.16735278
235	0xbd728c66	-0.059215926
236	0xbc287496	-0.0102817025
237	0xbd815029	-0.063141175
238	0xbb2ce787	-0.0026383118
239	0xbde9b69e	-0.114117846
240	0xbd9ab161	-0.075533636
241	0xbd726808	-0.059181243
242	0xbe809e35	-0.25120702
243	0xbe3de93f	-0.18546008
244	0xbe540fcf	-0.20709155
245	0xbc678cec	-0.0141327195
246	0xbd4a3e19	-0.049375627
247	0xbd9fe499	-0.078072734
248	0xbe13714a	-0.14398685
249	0x3dd6cc5c	0.10488197

conv1.bias f4 [10]
0	0x3e5b16e8	0.21395457
1	0x3cb3094b	0.021855017
2	0xbe0646f4	-0.13113004
3	0x3da6ea8f	0.08150207
4	0xbda99fc0	-0.08282423
5	0x3dbbe449	0.09174401
6	0x3d92e686	0.07172875
7	0x3e5b32d1	0.21406104
8	0x3d1e2b74	0.03861566
9	0x3e603d4d	0.21898384

conv2.weight f4 [20, 10, 5, 5]
0	0xbd2d42ff	-0.04230022
1	0xbdac5c39	-0.084160276
2	0xbd625a4f	-0.055261906
3	0x3cf5d26b	0.030007562
4	0x3ca88c06	0.02057458
5	0x3c23a525	0.009988104
6	0x3c6334a7	0.013867534
7	0x3c9d03e3	0.019166892
8	0xbdac75dc	-0.084209174
9	0x3cc8bb74	0.024503447
10	0x3d966334	0.0734314
11	0x3e150529	0.1455275
12	0x3dc2f5f2	0.095195666
13	0xbd46afe3	-0.048507582
14	0xbd544289	-0.051821265
15	0xbd74e469	-0.05978814
16	0xbce75002	-0.028236393
17	0x3db4a6ca	0.08820875
18	0x3d091baa	0.033473648
19	0xbc580167	-0.013183928
20	0xbdcdf11e	-0.10055755
21	0xbd1c7275	-0.038195092
22	0xbd778a83	-0.06043483
23	0xbd1d04c1	-0.03833461
24	0xbc9646e9	-0.01834436
25	0xbd2545ef	-0.040349897
26	0xbd0ee1e7	-0.034883406
27	0xbc57e42e	-0.013176961
28	0xbdb0c1e1	-0.086307295
29	0xbbf5e054	-0.0075035486
30	0x3cbe0350	0.023194939
31	0xbcc572d1	-0.0241026
32	0x3d768e10	0.060194075
33	0xbccb3ea0	-0.024810135
34	0xbd3efba2	-0.046626695
35	0xbc93905a	-0.018013168
36	0x3dceb119	0.100923724
37	0x3cb16778	0.021655783
38	0x3c9a0787	0.018802417
39	0x3d8de7a4	0.069289476
40	0xbcf7fa4c	-0.030270718
41	0xbd10cfaa	-0.035354294
42	0x3c0b3da3	0.008498582
43	0x3d8b3748	0.067976534
44	0x3db8b066	0.0901802
45	0x3d0ccef3	0.03437705
46	0xbd132c9b	-0.03593121
47	0xbc7621b9	-0.015022689
48	0x3d00950b	0.03139214
49	0x3c9b0191	0.018921645
50	0xbdada85e	-0.08479379
51	0xbd96b100	-0.07357979
52	0xbd221877	-0.039574113
53	0x3c9c34d9	0.019068168
54	0x3d348b0b	0.044077914
55	0xbbd58d93	-0.006517121
56	0xbe0d27aa	-0.13784662
57	0xbd898365	-0.06714515
58	0x3cd58f26	0.026069235
59	0xbd35376d	-0.04424231
60	0xbd01e343	-0.031710874
61	0xbdbc394b	-0.09190615
62	0xbdc269a0	-0.094928026
63	0x3cad38ba	0.021145213
64	0xbd4f0639	-0.050543044
65	0xbb88d02a	-0.0041752057
66	0xbd963717	-0.07334726
67	0xbd3f6855	-0.04673036
68	0xbd50ee37	-0.05100843
69	0x3d24f7c7	0.04027536
70	0xbc1af463	-0.00945768
71	0xbcb6d4cc	-0.022318266
72	0x3d8acb39	0.06777043
73	0x3c004dac	0.007831018
74	0x3d5ee5de	0.054418437
75	0xbcfb07ea	-0.030643422
76	0xbd87e684	-0.06635764
77	0xbde9f2ac	-0.11423239
78	0x3c9ec78c	0.01938226
79	0xbc493276	-0.012280097
80	0x3c1b11e0	0.009464711
81	0xbda35b1a	-0.079763606
82	0xbdc9601f	-0.09832787
83	0xbdeb50fd	-0.11490057
84	0xbcd91b47	-0.026502265
85	0xbd1005f8	-0.035161942
86	0x3d2ea037	0.04263326
87	0x3c8da1be	0.017289039
88	0xbd7d638e	-0.06186252
89	0xbd812728	-0.063062966
90	0xbde3e670	-0.11127937
91	0x3cb1c27b	0.02169918
92	0x3d88bdb7	0.0667681
93	0x3dab28e5	0.083574094
94	0xbd74a7f6	-0.059730493
95	0xbd50365f	-0.050833102
96	0xbd823d11	-0.06359304
97	0xbc077861	-0.008268447
98	0x3d4f36cd	0.05058937
99	0xbd662e21	-0.056196336
100	0x3d45a3e8	0.048252016
101	0x3dcc27db	0.09968539
102	0x3e0789f8	0.13236225
103	0x3db9b8fe	0.090684876
104	0x3d214b3d	0.039378393
105	0xbd12ef8a	-0.035872974
106	0xbc803de7	-0.015654517
107	0x3d8bc57f	0.06824779
108	0x3d2fb4c0	0.042896986
109	0x3d42b87c	0.04753922
110	0x3d53af69	0.051680956
111	0xbb32854f	-0.0027240103
112	0xbbff82be	-0.007797568
113	0xbca515ce	-0.020151999
114	0x3d71a66d	0.058996607
115	0x3c6823ac	0.014168661
116	0x3da2d000	0.07949829
117	0xbc49beca	-0.012313554
118	0xbb660a37	-0.0035101303
119	0xbd90fdeb	-0.07079681
120	0xbd041b6b	-0.03225271
121	0xbc7101f2	-0.014709936
122	0x3d985cbe	0.07439564
123	0x3b9f007a	0.0048523517
124	0xbd10cbe8	-0.03535071
125	0x3bdd5f79	0.006755766
126	0x3bf4116a	0.007448365
127	0xbd02bac1	-0.031916384
128	0xbd52fa73	-0.05150838
129	0x3c290704	0.010316614
130	0x3cd76089	0.026291149
131	0x3d73dec2	0.05953861
132	0xbcd0a26a	-0.02546807
133	0x3a8c43ba	0.0010701336
134	0xbd04dc8e	-0.0324369
135	0xbc83315b	-0.016014745
136	0xbcec500b	-0.028846761
137	0x3b234302	0.0024911766
138	0xbcfc1189	-0.03077008
139	0x3d1a7618	0.03771028
140	0xbd67d356	-0.05659803
141	0xbcd36895	-0.025806705
142	0x3b148bcf	0.002266634
143	0x3d71bcca	0.059017934
144	0x3c3fd871	0.0117093185
145	0xbc4d12ff	-0.012516736
146	0xba582262	-0.00082448695
147	0xbd3cdc21	-0.04610837
148	0xbc65dc28	-0.01402954
149	0xbd414c5b	-0.04719196
150	0xbc7a3e5b	-0.015273656
151	0xbce9e6a9	-0.02855237
152	0xbd3acd16	-0.04560574
153	0x3d0c500d	0.03425603
154	0x3d368872	0.04456372
155	0x3dff307c	0.124604195
156	0x3d2f0f67	0.0427393
157	0xbc000e01	-0.007815839
158	0xbd08e589	-0.033422027
159	0x3d28e6cd	0.041235734
160	0x3dcd5e5f	0.100277655
161	0x3e1fac63	0.15593104
162	0x3cc6f616	0.024287265
163	0x3cb3a917	0.021931214
164	0x3d2745c1	0.040838007
165	0x3c8a6583	0.016894108
166	0x3d7a0ce6	0.061047457
167	0x3dac492e	0.084123954
168	0x3c799960	0.015234321
169	0xbcd223f6	-0.025651913
170	0x3d714325	0.058901925
171	0x3d436421	0.047702912
172	0x3cb4cce5	0.022070358
173	0x3d4c3f66	0.04986515
174	0x3cc787c2	0.024356727
175	0xbb7ea5d1	-0.0038856158
176	0xbd0a2261	-0.033724193
177	0xbd014ab1	-0.031565372
178	0xbdbd966d	-0.09257207
179	0x3cfa86bf	0.03058183
180	0x3d47c410	0.048770964
181	0x3d4361b8	0.047700614
182	0x3d9e6f7e	0.07736109
183	0xbc8047c1	-0.015659215
184	0xbda727d0	-0.081618905
185	0x3a950999	0.0011370658
186	0x3d3b4cb2	0.04572744
187	0x3e2849db	0.16434424
188	0x3dc669c9	0.09688146
189	0xbcab9643	-0.020945674
190	0xbdc43abc	-0.09581515
191	0xbd670245	-0.05639865
192	0x3db99ae0	0.09062743
193	0x3d8f0774	0.069838434
194	0x3ccf9018	0.025337264
195	0xbd988f9d	-0.07449267
196	0xbd2c37be	-0.042045347
197	0x3c4456af	0.011983558
198	0x3bb1347f	0.0054078694
199	0x3ce42308	0.027848735
200	0x3d3fa54c	0.0467885
201	0xbd1d21ba	-0.038362242
202	0xbce07f2a	-0.027404387
203	0xbbbc59ba	-0.005748001
204	0x3ba0879f	0.00489898
205	0x3c3502cc	0.01104803
206	0x3bd00b59	0.006349009
207	0x3d63337d	0.055469025
208	0x3cad48c9	0.02115287
209	0xbd482df5	-0.048871953
210	0xbc5ec170	-0.013595924
211	0xbd829c79	-0.06377501
212	0xbd0eb4b3	-0.034840297
213	0xbd2c71a9	-0.042100582
214	0xbd9145b9	-0.07093377
215	0xbd29d186	-0.041459583
216	0x3cc18b10	0.02362588
217	0x3c93a1e9	0.01802154
218	0xbd063d47	-0.032773282
219	0x3d0ab951	0.033868138
220	0x3d1ba591	0.037999693
221	0x3d93e0f7	0.07220643
222	0xbbaaadad	-0.005208692
223	0x3d22c7d8	0.039741367
224	0xbd8517a6	-0.06498651
225	0xbd0cba03	-0.034357082
226	0xbc89f49b	-0.01684027
227	0xbd8e68cd	-0.06953583
228	0xbc0c3227	-0.008556879
229	0xbd6059a8	-0.054773003
230	0xbd12930a	-0.03578476
231	0xbd81adac	-0.063319534
232	0xbd450f6a	-0.048110403
233	0x3ca1333e	0.019677754
234	0xbc81e13b	-0.015854469
235	0xbd57b7e6	-0.052665614
236	0xbb7cf4e0	-0.0038598105
237	0xbd652601	-0.055944446
238	0xbd267862	-0.04064215
239	0x3bf0e264	0.0073512066
240	0xbd55b82f	-0.052177604
241	0xbd25b92c	-0.040459797
242	0xbc8e2a40	-0.01735413
243	0x3ae0051d	0.0017091368
244	0x3d8422bf	0.0645194
245	0xbd2ac8e0	-0.041695476
246	0x3c983636	0.018580537
247	0x3c781bf5	0.015143384
248	0xbd886725	-0.06660298
249	0xbb3a1385	-0.0028392982
250	0x3b981bc6	0.0046419827
251	0x3c88f927	0.016720368
252	0x3d814869	0.06312639
253	0x3c323489	0.010876783
254	0x3d04108b	0.03224234
255	0x3ca4e983	0.020130878

conv2.bias f4 [20]
0	0x3c6e8ef7	0.014560453
1	0xbd3197e4	-0.043357745
2	0xbd9de934	-0.077104956
3	0xbd2fb51e	-0.042897336
4	0xbd6aae89	-0.057295356
5	0x3bd7eda0	0.0065896064
6	0xbcd77ab8	-0.026303634
7	0xbd89d739	-0.067305036
8	0x3d27f0ae	0.041001014
9	0xbd823f8a	-0.06359775
10	0x3c6ddfdf	0.014518707
11	0x3cab1632	0.020884607
12	0xbcf45389	-0.029824989
13	0xbc328acd	-0.0108973505
14	0xbd13e553	-0.036107372
15	0xbd1d17cb	-0.03835277
16	0xbd8c6821	-0.068557985
17	0x3cc8a599	0.024493026
18	0xbc858c6e	-0.016302314
19	0x3cc93e65	0.024565885

fc1.weight f4 [50, 320]
0	0x3c8c1c50	0.017103344
1	0xbd23c896	-0.039986216
2	0xbd7b8183	-0.06140281
3	0xbd4ecc98	-0.050488085
4	0x3b826577	0.0039793807
5	0xbda61a51	-0.08110488
6	0x3ceea630	0.029131979
7	0x3ce94965	0.02847738
8	0x3d105512	0.03523738
9	0xbc71e139	-0.01476317
10	0xbc8b11d0	-0.016976267
11	0x3c90e346	0.017686497
12	0xbcb6266b	-0.022235116
13	0x3cd0bb11	0.025479825
14	0xbc531d24	-0.012885366
15	0xbcad7864	-0.02117557
16	0xbd69d39d	-0.057086576
17	0xbd937f80	-0.07202053
18	0xbdb9c1ab	-0.09070142
19	0xbd5b42c0	-0.053530455
20	0x3c717582	0.014737489
21	0x3d006f2c	0.03135602
22	0xbc3bdef8	-0.011466734
23	0x3b9316c4	0.004488798
24	0x3d27b4b2	0.04094381
25	0x399260be	0.0002791937
26	0x3d9089b7	0.07057517
27	0x3bf972e0	0.007612571
28	0xbc8a8a52	-0.01691166
29	0x3d624cb2	0.055248924
30	0xbba430cb	-0.0050106994
31	0xbcb12c21	-0.021627488
32	0xbd958414	-0.073005825
33	0x3d7d6e6c	0.061872885
34	0x3a0287e7	0.00049793575
35	0xbd1a1e45	-0.037626524
36	0xbd10a0a8	-0.035309464
37	0x3cd7b1e4	0.026329942
38	0xbc7ccc58	-0.015429579
39	0xbd3807b5	-0.044929225
40	0xbc863164	-0.016380973
41	0x3d454644	0.048162714
42	0x3d0db544	0.034596696
43	0xbd6079ce	-0.054803662
44	0xbd0a0e75	-0.033705194
45	0x3cd4d6f6	0.025981408
46	0x3d3ab99d	0.04558717
47	0xbb44de95	-0.0030039896
48	0x3c4bef06	0.012447124
49	0x3c76ee36	0.015071442
50	0x3daf424f	0.08557569
51	0x3ce3ab82	0.027791742
52	0xbcafc2d3	-0.021455204
53	0x3ce66ee1	0.028129043
54	0xbc7f4ed7	-0.015582762
55	0xbd8af4da	-0.06784983
56	0x3d107233	0.03526516
57	0x3ce591db	0.02802365
58	0x3d8601fc	0.06543347
59	0x3b87e464	0.0041470993
60	0xbd590a5a	-0.052988388
61	0xbd4100d8	-0.047119945
62	0x3cc3c41d	0.023897225
63	0xbcefe7bb	-0.029285302
64	0xbc79df6f	-0.015251025
65	0x3d8ffb15	0.07030312
66	0x3d56909d	0.052384008
67	0xbc80fd8e	-0.015745904
68	0x3ba220d6	0.004947762
69	0x3d134bbf	0.03596091
70	0xbcd20032	-0.025634859
71	0x3cacc96c	0.02109214
72	0xbba24db9	-0.004953113
73	0x3da447cb	0.08021506
74	0x3c32b365	0.010907029
75	0xba30363f	-0.00067219505
76	0x3c7c9149	0.015415498
77	0x3c8f85b7	0.017519815
78	0xbd2eb683	-0.042654525
79	0x3d31bd6d	0.04339354
80	0x3ca297b8	0.019847736
81	0x3dad602e	0.084656104
82	0x3d563c4e	0.052303605
83	0x3d0f822f	0.035036262
84	0x3ce9b7fc	0.028530113
85	0xbca87c7c	-0.020567171
86	0xbd8b86e7	-0.0681284
87	0xbdda02a9	-0.10645039
88	0x3d2741ec	0.040834352
89	0x3d606184	0.0547805
90	0xbb8a5f88	-0.004222814
91	0xbc248363	-0.010041091
92	0x3d487d0c	0.04894738
93	0x3d4a2268	0.04934922
94	0x3993c2a4	0.00028183043
95	0xbcc4f24a	-0.024041314
96	0xbce1e529	-0.027575092
97	0x3b743bb2	0.0037267026
98	0x3c9010b3	0.017586088
99	0x3d911d4e	0.070856676
100	0x3c83af73	0.016074872
101	0xbd56ee53	-0.052473377
102	0x3d36c2af	0.04461926
103	0xbc0e072d	-0.008668703
104	0xbd319364	-0.043353453
105	0xbd2a2f94	-0.04154928
106	0xbc7ea258	-0.015541635
107	0xbc7926f1	-0.015207038
108	0xbc77abee	-0.015116675
109	0x3c63b738	0.013898663
110	0x3b3fa842	0.0029244577
111	0x3cc82de0	0.024435937
112	0xbd87443c	-0.066048115
113	0xbda18d40	-0.078882694
114	0xbd056ece	-0.032576375
115	0xbdd13efe	-0.10217093
116	0xbccf3992	-0.025296006
117	0x3ced68b4	0.02898059
118	0xbc53e2b1	-0.012932465
119	0x3b86f20a	0.004118209
120	0xbcbeab15	-0.023274938
121	0x3d110f3e	0.035414927
122	0x3cc9d99d	0.024639899
123	0xbd0ac741	-0.03388143
124	0xbc3d63f3	-0.011559474
125	0x3d71d9e5	0.05904569
126	0x3d342d30	0.043988407
127	0xbcc4d79a	-0.024028588
128	0xbd9836ba	-0.07432313
129	0xbd88f418	-0.06687182
130	0x3d6e4453	0.058170628
131	0xbcf8a238	-0.03035079
132	0xbc8295c2	-0.01594055
133	0x3d2cd9aa	0.042199768
134	0x3da813ad	0.08206878
135	0x3cf7b1ea	0.030236203
136	0xbd58940e	-0.05287557
137	0xbd265a4b	-0.040613454
138	0x3d64445c	0.055729255
139	0xbd6e1d31	-0.058133308
140	0xbcdc3d31	-0.026884647
141	0xbc2271c5	-0.00991482
142	0xbcae0c7d	-0.02124619
143	0xbd187c53	-0.03722794
144	0x3b40018b	0.0029297795
145	0x3d80ffba	0.06298776
146	0x3e060118	0.13086355
147	0xbcde5c0e	-0.027143504
148	0xbc6e9645	-0.014562194
149	0x3cc658be	0.024212237
150	0xbc69d85a	-0.014272774
151	0xbbcb950c	-0.006212836
152	0x3b540d4e	0.0032356563
153	0xbcb34a9c	-0.021886162
154	0xbd6c871d	-0.05774604
155	0xbd36fa51	-0.044672314
156	0xbc7ece5f	-0.015552132
157	0x3d4438c6	0.047905706
158	0xbd0198c7	-0.03163984
159	0xbd4a5875	-0.049400765
160	0x3c5bf9b7	0.013426236
161	0xbcce4563	-0.02517957
162	0xbdb26467	-0.087105565
163	0x3d6afcf4	0.05737014
164	0x3c564475	0.013077845
165	0xbcf73879	-0.030178295
166	0x3cac74b3	0.02105174
167	0x3d7044c1	0.05865932
168	0x3c9cb995	0.019131461
169	0xbc351595	-0.011052509
170	0xbc07ccdb	-0.008288587
171	0x3bfbde7c	0.0076864343
172	0xbc348022	-0.011016877
173	0xbd4e4d64	-0.050366774
174	0xbc1e345e	-0.00965604
175	0x3ba6e025	0.005092638
176	0xbad3eda9	-0.0016168851
177	0x3d6291a7	0.055314686
178	0x3d863093	0.065522335
179	0x3d229edf	0.039702293
180	0xbcd18327	-0.025575234
181	0x3cbe9fcf	0.023269562
182	0x3d247e88	0.040159732
183	0x3d45a932	0.04825706
184	0x3be250d4	0.006906608
185	0xbcd62379	-0.026139962
186	0xbd514801	-0.05109406
187	0xbca49bd7	-0.020093841
188	0xbc698915	-0.014253874
189	0xbc9e1b5e	-0.019300159
190	0xbd6012d5	-0.05470546
191	0x3cb00bd0	0.021490008
192	0x3c94f4a5	0.018183062
193	0x3db239fb	0.08702465
194	0x3d8a8c03	0.06764986
195	0x3c9615a7	0.018320872
196	0x3d6c203f	0.05764794
197	0xbd2bbcc5	-0.04192807
198	0x3b5b2d5e	0.003344379
199	0xbd770d37	-0.060315337
200	0x3c8ca71c	0.017169528
201	0xbb2bf38a	-0.002623769
202	0x3d2ac842	0.041694887
203	0xbd4933a9	-0.049121533
204	0x3ca12874	0.01967261
205	0x39437cac	0.00018643093
206	0x3ced2ca4	0.02895195
207	0xbc29fe12	-0.0103755165
208	0xbd8cae6c	-0.06869206
209	0x3c71407d	0.014724848
210	0xbd52185e	-0.05129277
211	0xbd498e41	-0.04920793
212	0x3c8798a7	0.016552282
213	0x3d5af1cc	0.05345325
214	0x3c66810c	0.014068853
215	0xbc305461	-0.010762305
216	0x3d13b21d	0.036058534
217	0x3d05e414	0.032688215
218	0x3d2dbef4	0.042418435
219	0xbd432a50	-0.047647774
220	0x3c954bae	0.018224563
221	0xbc893f12	-0.016753707
222	0xbc9e6d09	-0.019339101
223	0x3a5ad8a8	0.00083483243
224	0xbddf655c	-0.10908005
225	0xbd92c347	-0.071661524
226	0xb85091cc	-4.972685e-05
227	0x3db8839e	0.09009479
228	0xbda10a4c	-0.07863292
229	0xbb63a42e	-0.003473531
230	0xbd1babe7	-0.038005736
231	0x3d8fe45c	0.07025978
232	0xbd2a37ab	-0.041556995
233	0xbd7ce8e8	-0.061745554
234	0x3d6edb2a	0.05831448
235	0xbc862de9	-0.016379314
236	0x3b1fac7c	0.0024364283
237	0x3d57f0f6	0.052720033
238	0xbd0d4dea	-0.034498133
239	0x3ce424e2	0.027849618
240	0xbd1df2a0	-0.038561463
241	0xbd73590b	-0.05941109
242	0xbc84b062	-0.016197387
243	0x3c2091db	0.0098004
244	0x3cb47366	0.022027683
245	0xbce78996	-0.028263848
246	0x3d38021c	0.044923887
247	0x3d533f56	0.051574074
248	0x3bcf8441	0.0063329046
249	0xb9b46efb	-0.00034414962
250	0xbd464341	-0.048403982
251	0xbd4360dd	-0.047699798
252	0xbd62bd1e	-0.055356137
253	0x3ccc5a4f	0.024945406
254	0xbd36e5c2	-0.044652708
255	0xbd47feab	-0.048826855

fc1.bias f4 [50]
0	0x3cd9cec5	0.026587853
1	0x3d2cf745	0.042228002
2	0x3cb6f7d6	0.022334974
3	0x3c892b75	0.016744355
4	0xbcbf06a1	-0.02331859
5	0x3c67a988	0.0141395405
6	0xbd2ce43f	-0.04220986
7	0x3bca6d64	0.006177591
8	0xbc4da256	-0.012550911
9	0x3c8f2ae1	0.017476501
10	0x3d66f54b	0.056386273
11	0xbbac6466	-0.005260992
12	0x3d8ea3aa	0.0696481
13	0x3d2bd6a0	0.04195273
14	0x3d0a9564	0.033833876
15	0xbd2bdade	-0.041956775
16	0x3d0fc6f4	0.035101846
17	0x3d7e5e22	0.06210149
18	0x3d6d6ddd	0.057966102
19	0x3cff3729	0.031154232
20	0x3b97c728	0.0046318956
21	0xbae3950e	-0.0017363147
22	0x3d8c1a72	0.068409815
23	0xbbd0c22b	-0.006370803
24	0xbcce69bc	-0.025196902
25	0xbd27ae09	-0.040937457
26	0x3d347b27	0.04406276
27	0x3d0ee4de	0.034886234
28	0xbcefda4b	-0.029278895
29	0x3d91b273	0.071141146
30	0x3d7ee862	0.062233336
31	0x3d512ed9	0.051070068
32	0x3d3d4183	0.046205055
33	0xbd19889a	-0.03748379
34	0x3d0a2d40	0.03373456
35	0xbcb1648e	-0.021654394
36	0xbbe5a8ff	-0.0070086713
37	0x3d887539	0.066629834
38	0xbb6faabc	-0.0036570271
39	0xbd17fb8c	-0.03710513
40	0x3cc02af1	0.023457976
41	0xbb5e42fb	-0.0033914435
42	0x3d214fca	0.039382733
43	0xbaa16762	-0.0012314136
44	0x3be59ffa	0.007007596
45	0xba700bb2	-0.0009157016
46	0xbd163f5f	-0.03668153
47	0x3c8e8b7e	0.0174005
48	0xbccd02d8	-0.02502577
49	0xbc9f1b83	-0.019422298

fc2.weight f4 [10, 50]
0	0xbe20c50a	-0.15700164
1	0x3e5a3a3c	0.21311277
2	0x3df253a7	0.11832362
3	0x3de20418	0.11035937
4	0xbe0496e2	-0.12948182
5	0x3e55f6d7	0.20894943
6	0xbde59643	-0.11210301
7	0x3e0f4982	0.13992885
8	0x3e36f2f8	0.17866123
9	0xbd4bcf50	-0.049758255
10	0x3e22ec33	0.15910415
11	0x3e264179	0.16235913
12	0x3e59f84f	0.21286128
13	0x3e51a955	0.20474751
14	0xbe034ffe	-0.12823483
15	0x3d496e67	0.049177554
16	0xbe8880d7	-0.26660797
17	0xbe2a92d6	-0.16657576
18	0x3e43bc3b	0.19114773
19	0xbe54ee1c	-0.20793957
20	0xbe4d34c8	-0.20039666
21	0xbdf71597	-0.12064665
22	0xbe28dfd1	-0.16491629
23	0x3de4a039	0.111633725
24	0xbe5a0354	-0.21290332
25	0x3c35703c	0.011074122
26	0x3e0ec793	0.13943319
27	0xbdbe8033	-0.09301796
28	0xbe1fe5c1	-0.15614988
29	0xbe057c9b	-0.13035814
30	0x3e0f852e	0.14015648
31	0xbdd005e5	-0.10157374
32	0xbdab40c8	-0.083619654
33	0xbe3489a6	-0.17630634
34	0x3e42ce61	0.1902404
35	0xbe16e39a	-0.1473526
36	0xbe04bb67	-0.12962113
37	0x3df5bd17	0.11998957
38	0x3e12c855	0.14334233
39	0xbe26783d	-0.16256805
40	0xbe0adc7c	-0.1356067
41	0xbe27a006	-0.16369638
42	0xbe149185	-0.14508636
43	0xbcd3340c	-0.025781654
44	0xbe2b3735	-0.16720279
45	0xbd9c1399	-0.076209255
46	0xbdd674cb	-0.10471495
47	0xbe6702a3	-0.225596
48	0xbbbcafbf	-0.0057582553
49	0x3df66f08	0.12032896
50	0x3e3197c3	0.17343049
51	0xbe0a744f	-0.1352093
52	0x3dae9ec2	0.085263744
53	0xbe4782ac	-0.19483441
54	0xbe083de7	-0.13304864
55	0x3e10ae37	0.14128958
56	0x3dd4e05a	0.10394354
57	0x3e40af47	0.18816863
58	0xbe2b8e76	-0.16753563
59	0x3dd296a9	0.102826424
60	0xbe1871e7	-0.148872
61	0x3d8f07fb	0.06983944
62	0xbdf9b414	-0.1219255
63	0xbd7ecd41	-0.062207464
64	0x3e3bf7b4	0.1835621
65	0xbc7bdfac	-0.015373152
66	0xbde0f1db	-0.1098363
67	0x3e891def	0.2678065
68	0x3e0180cc	0.12646788
69	0x3e3b946e	0.1831834
70	0x3d72f19b	0.059312444
71	0xbe13e78c	-0.14443797
72	0x3e6148b8	0.22000396
73	0xbe9b39c1	-0.303175
74	0xbe00568b	-0.12533014
75	0xbdfadda1	-0.122493036
76	0xbe82c717	-0.25542518
77	0x3e5e41e3	0.21704821
78	0xbdd6d99e	-0.10490726
79	0x3e425d53	0.18980913
80	0xbe19e4cd	-0.15028687
81	0x3cb06f71	0.021537514
82	0x3e27b0d4	0.16376048
83	0xbd8079e7	-0.06273251
84	0xbd1e50c0	-0.038651228
85	0x3db8a42b	0.090156876
86	0xbe0024b2	-0.12513998
87	0xbe209ee3	-0.1568561
88	0xbdd5db5a	-0.104422286
89	0xbdd8ea62	-0.1059158
90	0xbd8b1bfa	-0.067924455
91	0x3e54c994	0.20780021
92	0xbdd34499	-0.10315818
93	0x3d647fc1	0.055785898
94	0x3e4f14e2	0.2022281
95	0x3e50f39b	0.20405428
96	0x3b90338c	0.004400676
97	0x3d611f03	0.054961216
98	0xbe3fd71c	-0.18734401
99	0xbe647ce1	-0.22313263
100	0xbd86cd7b	-0.06582161
101	0x3e21515e	0.15753695
102	0xbdcb322e	-0.099216804
103	0x3d9de9e1	0.077106245
104	0xbdb318d3	-0.08744969
105	0x3e2bed10	0.16789651
106	0xbde389a0	-0.11110234
107	0x3d95fc30	0.073234916
108	0xbcb35eeb	-0.021895846
109	0x3e38f274	0.18061239
110	0x3db96311	0.090520985
111	0xbcd74ab3	-0.026280737
112	0xbd80f8d0	-0.06297457
113	0xbe0ff6f8	-0.14059055
114	0x3e64995b	0.22324125
115	0x3e43731e	0.19086882
116	0xbe452e5f	-0.1925597
117	0xbd80ca4a	-0.062885836
118	0x3cb9b37d	0.022668594
119	0xbe1c39b1	-0.15256383
120	0x3cf0a924	0.029377528
121	0xbc3f0f7b	-0.011661406
122	0xbd850437	-0.064949445
123	0xbe031925	-0.1280256
124	0xbd155a10	-0.036462843
125	0xbe07d8a5	-0.13266237
126	0x3c912d3f	0.01772177
127	0xbcb3c1ee	-0.021943059
128	0x3deb5abb	0.11491915
129	0xbe0e4ff1	-0.13897683
130	0xbdb6bb6d	-0.089224674
131	0x3e71d445	0.2361613
132	0x3e23c5bf	0.15993403
133	0xbd8b0d2f	-0.06789624
134	0x3e4933af	0.19648622
135	0xbe2f2e40	-0.17107487
136	0x3e24b501	0.16084673
137	0xbdabc577	-0.08387273
138	0x3e02f796	0.12789759
139	0xbdd97009	-0.10617072
140	0x3db7f62c	0.089825004
141	0x3e5aeae5	0.21378668
142	0x3cb94a07	0.022618307
143	0x3e500fca	0.20318523
144	0xbbd3bad8	-0.0064614825
145	0xbdee230e	-0.1162778
146	0x3e2f4bb1	0.17118718
147	0xbe2a6f5a	-0.1664404
148	0x3e2be718	0.16787374
149	0x3cd5c5f3	0.026095366
150	0xbe1c34e2	-0.15254548
151	0xbd88e60f	-0.06684505
152	0x3d987809	0.0744477
153	0xbdf92655	-0.121655144
154	0x3d066278	0.03280875
155	0xbe1e3407	-0.15449534
156	0x3e44fbdf	0.19236706
157	0xbd659b7f	-0.056056496
158	0xbe2e846b	-0.17042701
159	0x3e24b16e	0.16083309
160	0xbe021ee7	-0.12707101
161	0xbdde62d0	-0.10858691
162	0x3e5ba419	0.21449317
163	0xbdcaaf9d	-0.09896777
164	0x3e414cf0	0.18877006
165	0xbde204df	-0.11036085
166	0x3e14361c	0.14473766
167	0xbe29fc98	-0.16600263
168	0x3c0a9aed	0.008459789
169	0x3e3b2bae	0.18278381
170	0x3e3acac7	0.18241416
171	0x3d98b522	0.07456423
172	0xbdbfc8f3	-0.093645
173	0x3a623db0	0.0008630408
174	0xbde316c1	-0.11088324
175	0x3ced4839	0.028965103
176	0x3dafea1e	0.08589576
177	0xbd206216	-0.039156042
178	0x3dda2994	0.10652462
179	0xbbfff043	-0.007810624
180	0x3cbd644d	0.023119116
181	0x3e56101f	0.20904587
182	0x3e00ecf8	0.12590396
183	0xbdd27e7d	-0.10278032
184	0x3e351869	0.17685093
185	0x3e6e34c4	0.23262316
186	0x3e0ea7cd	0.13931198
187	0xbe328c9c	-0.1743645
188	0x3d26e27a	0.04074333
189	0xbdb60605	-0.08887867
190	0x3d9a73a6	0.075415894
191	0xbd3a2daa	-0.045453705
192	0x3e479753	0.1949132
193	0xbd84ecd5	-0.064904846
194	0xbdb4a963	-0.088213705
195	0xbe12b730	-0.14327693
196	0x3d851c38	0.06499523
197	0xbd3b194e	-0.04567843
198	0xbd956af9	-0.07295794
199	0x3dc2815a	0.09497328
200	0x3b51d100	0.0032015443
201	0xbd07e164	-0.033173934
202	0xbdfc32ad	-0.12314353
203	0x3dcb25de	0.09919332
204	0xbe0b553e	-0.13606736
205	0xbd9777ad	-0.07395873
206	0xbdfb191b	-0.12260648
207	0xbdcef440	-0.10105181
208	0xbdc84037	-0.09777873
209	0xbe1d9d26	-0.15391979
210	0xbd897664	-0.06712034
211	0x3dd8bcf3	0.10582914
212	0xbe4eca5d	-0.20194383
213	0xbdf33e11	-0.118770726
214	0xbe4f225b	-0.2022795
215	0x3e66000d	0.22460957
216	0x3e0e624d	0.13904686
217	0xbdc76799	-0.097365566
218	0xbe0d52ac	-0.13801068
219	0x3e0a3cfc	0.13499826
220	0xbd8673c3	-0.065650485
221	0x3e6ffd90	0.2343657
222	0x3e1051a9	0.14093651
223	0x3db5d515	0.08878533
224	0x3e487761	0.1957679
225	0x3e584d5c	0.2112326
226	0xbea59780	-0.32342148
227	0x3c92b1bc	0.017907016
228	0xbe8cb298	-0.27480006
229	0x3e036e0c	0.12834948
230	0xbe109f5f	-0.14123295
231	0xbd2d0173	-0.04223771
232	0x3d2436c8	0.040091306
233	0x3e0f1fd2	0.13976982
234	0xbd962bce	-0.07332574
235	0x3cc547f0	0.024082154
236	0x3e2ce504	0.16884238
237	0x3e00a5e9	0.1256329
238	0xbe7ff8c6	-0.24997243
239	0x3e4e9b0f	0.20176338
240	0x3ceb9b6a	0.02876063
241	0xbc69b1a0	-0.0142635405
242	0x3d395b0a	0.045252837
243	0xbda3a2ec	-0.07990059
244	0x3e6c2139	0.23059548
245	0x3e348e0f	0.17632316
246	0xbdb9c6d6	-0.09071128
247	0x3e1cb7c4	0.15304476
248	0x3e6dff9c	0.23242038
249	0xbe88fe0a	-0.26756316
250	0x3cf3d706	0.029765617
251	0xbe29a0a5	-0.16565187
252	0x3e40e106	0.1883584
253	0xbe4a8595	-0.1977752
254	0xbe0d9df7	-0.1382979
255	0xbe0dbcae	-0.13841507

fc2.bias f4 [10]
0	0xbd5dc3d2	-0.054141827
1	0x3cd278e8	0.025692418
2	0x3d9fb28c	0.07797727
3	0xbd8931b2	-0.06698932
4	0xbd3d230a	-0.046175994
5	0xbd072612	-0.03299529
6	0x3d0c4ddd	0.034253944
7	0xbc8e3906	-0.017361175
8	0xbc851707	-0.016246332
9	0xbd934804	-0.0719147
