results/model.pth (torch, 89871 bytes, 8 tensors)

conv1.weight f4 [10, 1, 5, 5]
000000 da a6 30 be f1 5d 02 be 8d 0f 12 be 5a ed 40 be
       -0.17251149 -0.12731148 -0.14263745 -0.18840542
000010 72 96 37 3d be 31 e0 bd 85 8d 4b be ac 8a 71 be
       0.04482121 -0.109469876 -0.19878204 -0.23588055
000020 fe d4 9b bd 38 2f 45 bd f0 5c 24 bd 7c 4c 0d be
       -0.076089844 -0.048140734 -0.040127695 -0.13798708
000030 59 ee 85 bd 9c 6d f7 3d 24 80 a8 3d d0 f5 86 3d
       -0.06539602 0.12081453 0.08227566 0.06589854
000040 62 eb 58 be 3a 9d 5e 3d 9a c1 91 3e ce 83 15 3e
       -0.21183541 0.05434916 0.2846802 0.14601061
000050 a0 87 60 be d7 50 da bd bc 40 09 3e 5c 76 a8 3e
       -0.21926737 -0.1065995 0.134036 0.329028
000060 17 66 a2 bc b5 44 c1 3e a3 80 e6 3e d6 9d 9b 3e
       -0.01982407 0.37747732 0.45020017 0.30393857
000070 be d0 0f 3d 07 b5 26 3e 0f 70 94 3e 63 4f b9 3e
       0.03511118 0.16279994 0.28991744 0.3619338
000080 a2 2b 6c 3c d1 cf 75 3e 10 b5 c1 3c 02 ab ef 3c
       0.0144147 0.24005057 0.023645908 0.029256348
000090 fe ff 32 3e 5f 75 91 bd 19 16 4c be 48 40 0b 3e
       0.17480466 -0.07102465 -0.19930305 0.1359874
0000a0 00 89 03 be 7c 09 b9 3c 7d 74 e2 bd 6e ee 6d be
       -0.1284523 0.02258753 -0.110573746 -0.23235485
0000b0 af 32 1d be 06 08 35 be ce 01 ea 3c d9 aa 86 be
       -0.15351366 -0.17678842 0.028565314 -0.2630222
0000c0 a9 c5 ae bb db 84 15 be 3f ce 92 3d 9c c9 1e bd
       -0.0053336215 -0.14601462 0.071682446 -0.03876649
0000d0 21 32 b2 3d 5b 60 9d 3c e9 08 3c bd 74 d1 14 3e
       0.087009676 0.019210985 -0.045906935 0.14533025
0000e0 b2 c6 74 3c 00 d7 6e 3e 4f a4 85 be 4f 0d 55 be
       0.014939951 0.23324203 -0.2610192 -0.20805858
0000f0 f7 a8 61 3e f2 3e 85 3d 56 00 9f 3e 31 58 f4 bd
       0.22037111 0.065061465 0.31054944 -0.11930884
000100 9f 31 2e be df c7 6f bd 97 0e c8 3e 1a 65 44 3e
       -0.17011116 -0.05854022 0.3907363 0.19179192
000110 23 0c 19 be 1d 4e 6c be ec 6f 2b 3c b7 f0 db bc
       -0.14946036 -0.23076673 0.010463696 -0.02684818
000120 7b 3d a8 3e d9 7d b3 3e 84 11 09 3e cb ab 3d 3e
       0.32859406 0.35056952 0.13385588 0.18522565
000130 74 34 65 bd 0f 37 b9 3d a4 a4 aa bc 07 a6 43 3d
       -0.055958226 0.09043705 -0.02083046 0.047765758
000140 76 3d a1 3e d3 0d a1 3e 1b 08 af 3e b7 13 fb 3e
       0.31492203 0.3145586 0.3418587 0.4903848
000150 63 49 b2 3e ae 22 c4 bd 73 63 43 3e 68 86 cb 3d
       0.34821615 -0.09576927 0.19080906 0.09937745
000160 df 4a 3e 3e 06 63 5e 3e 81 a4 5c be 4c 19 4c be
       0.18583249 0.21717462 -0.21547128 -0.19931525
000170 f0 cb 2f be ec 34 d4 3d e9 3a 8d 3e 2a d8 21 be
       -0.1716764 0.103616565 0.27584007 -0.15805116
000180 bd a2 7a be 2f d9 ee be 0a 7d 56 be a1 14 f0 bd
       -0.24476142 -0.46650073 -0.20946136 -0.11722685
000190 75 b3 ae 3e bc cf 95 3e d3 0e a4 3c 7f ba d1 bc
       0.3412129 0.2926005 0.0200266 -0.025601624
0001a0 a6 98 52 be 75 48 d7 3e b0 0d 90 3e 0d 80 05 3e
       -0.20566043 0.42047468 0.28135443 0.13037129
0001b0 90 cc cf bd 9f 1e 86 be 02 3b 73 3e 6c 22 e3 3d
       -0.10146439 -0.26195237 0.23752978 0.1109055
0001c0 c8 51 5e be a2 18 7d be 34 85 9f bc 62 65 9d 3e
       -0.21710885 -0.24716428 -0.019472696 0.3074141
0001d0 b7 6d 86 3e 2d 2e 10 bc b8 6e 81 be 60 5a 2a be
       0.2625558 -0.008800072 -0.25279784 -0.16636038
0001e0 a7 e9 23 3d 2f 0b 1c 3e cb 65 04 3c 31 aa 15 3e
       0.04001775 0.15238641 0.00808091 0.14615704
0001f0 45 96 20 be 07 05 e9 3d 5d e6 d5 bd 4e 5e 20 be
       -0.15682323 0.11377912 -0.10444329 -0.15660974
000200 0a c4 1b be 15 67 24 3e 00 5e a6 3b b8 71 03 bd
       -0.15211502 0.16054948 0.0050771236 -0.032090873
000210 e5 58 ce 3d d6 1f 9a 3d 43 5d 3a 3e c0 2e 4a be
       0.10075549 0.075256035 0.18199639 -0.19744396
000220 37 a7 0e 3d 96 3a e3 3c e2 d2 2a be fd 6b 2e 3d
       0.034827437 0.027737897 -0.16682008 0.042583454
000230 b2 f1 6e be ac 7e c5 3d 14 8e 17 3e 29 4c 16 be
       -0.23334387 0.09643301 0.14800292 -0.1467749
000240 36 cd 1a 3d 3b d8 6d be 71 20 17 bd 36 b8 59 3d
       0.03779336 -0.23227017 -0.036896173 0.053154193
000250 7c 37 e8 bd dd d6 05 be f3 32 3f 3c e8 0c 10 3e
       -0.11338708 -0.13070245 0.011669862 0.14067423
000260 28 88 10 3e 81 aa 9b 3d 47 35 b0 3e 86 6d 27 bc
       0.1411444 0.076008804 0.34415647 -0.0102189835
000270 9d ad 8e be 2b c4 50 be 2c ab 9a 3c f9 da bf 3e
       -0.2786683 -0.20387332 0.01888045 0.3747175
000280 1f 8d b0 be 0c 50 28 be 65 88 96 3b 6a 1d 00 3e
       -0.34482667 -0.16436785 0.004593896 0.1251122
000290 fb d3 c7 3e 83 4f 59 be 37 e5 0c be 77 5f df 3d
       0.39028916 -0.21221738 -0.13759314 0.1090688
0002a0 bb 9a e3 3d c7 59 b2 3e 0b 25 8c be bd ea b1 bc
       0.11113497 0.3483412 -0.27372012 -0.021718377
0002b0 f5 15 4d 3e ed 93 22 3e 53 c6 21 3e 99 1b da 3d
       0.20027907 0.15876742 0.15798311 0.10649795
0002c0 b9 24 c5 ba fd dd 09 3e 26 7c 46 be 1d 94 2e be
       -0.0015040851 0.13463588 -0.19383296 -0.17048688
0002d0 d0 36 e8 bd 7e ca 52 3d f1 58 70 bd 71 99 d3 bd
       -0.1133858 0.051462643 -0.05867857 -0.10332001
0002e0 4d 90 38 be ed 46 55 3e 75 f4 6d 3d 8c ae fc 3d
       -0.18023796 0.20827837 0.05809446 0.1233798
0002f0 69 fa 61 be 02 3d 34 3e 6b dd 13 bb 61 67 9e 3e
       -0.2206818 0.17601398 -0.0022562395 0.30938247
000300 db d4 9a 3d 29 37 0d 3e 9d 7d 65 bd 0f 48 4a be
       0.0756013 0.13790573 -0.056027997 -0.1975405
000310 ec d4 4e 3d 7a 2f 5b 3e 28 7a 1a bd 9a f6 5e 3d
       0.050496027 0.2140483 -0.037714154 0.054434396
000320 b4 98 56 be 8a 85 72 bd 1f f5 65 bd 53 6a 40 be
       -0.20956689 -0.059209384 -0.05614197 -0.1879056
000330 b4 81 7f bd f8 4c bc bd fb f9 05 3e f6 aa 69 be
       -0.062379554 -0.09194368 0.13083641 -0.22819123
000340 2b e1 3a be e8 23 c3 3c 25 a3 55 be fe 50 0e bd
       -0.18249957 0.023820832 -0.20863016 -0.03474521
000350 d5 83 a7 bd 1f 8d 10 be 00 d6 60 bc 61 2f 08 bd
       -0.08179442 -0.14116333 -0.013722897 -0.03324831
000360 99 b9 1a 3e b9 ba 18 3d 9f aa 6d be ad ac bd 3b
       0.15109862 0.037287448 -0.23209618 0.005788407
000370 15 7e 17 3e ea 83 c4 bd 8c ae be bd c1 51 45 be
       0.1479419 -0.09595473 -0.09310636 -0.19269468
000380 af 11 7a be 45 d9 3b 3d 11 ab 37 bd 2f 49 8a be
       -0.24420808 0.0458615 -0.044840876 -0.2700896
000390 b0 d7 68 be 64 e9 47 3d 20 c9 a8 3c 05 e6 4d be
       -0.22738528 0.048806563 0.020603716 -0.20107277
0003a0 19 48 89 be d3 2b 1b be 40 46 ab b6 46 b5 53 3e
       -0.2681282 -0.15153436 -5.1043753e-06 0.20674619
0003b0 18 70 23 3e 63 5c 4d 3e ba 3b 13 be dc 96 5c be
       0.15960729 0.20054774 -0.14378253 -0.21541923
0003c0 dd a3 55 3e 79 21 55 3e d5 50 28 3e 34 30 d9 3d
       0.2086329 0.2081355 0.16437085 0.10604897
0003d0 0d df 2f be 82 2b 58 bd eb f6 0c be 13 65 73 3e
       -0.17174931 -0.052775867 -0.13766067 0.23769026
0003e0 30 0a 23 3e 04 52 a6 3e
       0.15921855 0.32484448

conv1.bias f4 [10]
000000 91 10 0f 3e c1 e8 2b 3e c4 e4 4b 3e ce c8 4b 3e
       0.13971163 0.16788007 0.19911486 0.1990082
000010 0b 2b 8c bd 81 b8 b7 3d 43 cb 0e 3d 92 dc 4d 3e
       -0.06844147 0.08970738 0.034861814 0.20103672
000020 25 9f 3f 3d f2 ba a8 bb
       0.04678263 -0.0051492387

conv2.weight f4 [20, 10, 5, 5]
000000 39 6c 0b 3d 73 3a a4 bd de ea d3 bc a1 d6 a6 bd
       0.034038756 -0.08018961 -0.02586883 -0.08146406
000010 60 8f ab bc eb c0 00 3d 14 06 ae bd 53 02 82 bd
       -0.02094239 0.03143398 -0.08497253 -0.063480996
000020 ba 2c b4 bc 38 b6 61 3d d2 63 25 3d 91 e8 4b bd
       -0.021993984 0.055105418 0.0403784 -0.04978234
000030 42 e6 85 bd 65 9d 63 3d bc 4b 9a 3d 63 8b de 3c
       -0.06538059 0.055570025 0.075339764 0.027166074
000040 1f 05 11 3d 4d fc 52 3d 36 39 85 3d d3 a5 29 bd
       0.035405274 0.051510144 0.06505053 -0.041417908
000050 21 7e 72 bc 5b 92 ea 3c 52 a6 ce 3c f7 49 a5 3d
       -0.014800579 0.02863424 0.025225792 0.08070748
000060 35 9a 3d 3a 28 12 37 bd 07 c3 fa 3c 3d 5a e6 bc
       0.00072327565 -0.04469505 0.030610574 -0.0281192
000070 1f 68 a0 3c 32 74 22 bd 85 ef 01 bd 8d 3d 73 3b
       0.019580899 -0.039661594 -0.031722564 0.0037115545
000080 c2 f7 d3 bc ae 81 d9 bc cc bd 25 3b fe b6 33 3d
       -0.025874976 -0.026551094 0.002529013 0.043875687
000090 20 f6 d1 bb 56 a9 a2 bd 96 2e 80 bd 24 9e 20 bd
       -0.006407514 -0.079424545 -0.062588856 -0.039213315
0000a0 f7 f2 cc 3d e9 d3 72 39 a2 29 03 bc e3 79 08 bd
       0.10007279 0.00023157861 -0.0080055315 -0.033319365
0000b0 a4 8f c0 3c bd 31 af 3c 38 37 0a bc 23 04 53 ba
       0.023505993 0.021386022 -0.008436017 -0.00080496276
0000c0 40 23 a7 bd 32 2e 84 3d 18 92 9f 3c 1d 6f 38 bd
       -0.0816102 0.064541236 0.019478843 -0.04502784
0000d0 f7 d9 47 bd 46 a6 95 bc 0a 3c 3e 3d de 8f 0c bd
       -0.04879185 -0.018267762 0.046443976 -0.03431689
0000e0 65 11 f9 bc d5 ff 90 bd ff d1 83 3b f0 cd 37 bd
       -0.030403802 -0.07080046 0.004022836 -0.04487413
0000f0 0a bb b8 3d 66 28 ea bb 89 2b e6 bc e5 36 9d bd
       0.0902005 -0.007145929 -0.028096931 -0.07676486
000100 0a 14 8e 3d e3 5c 7d 3c 52 67 bb bc 92 88 e9 bd
       0.06937416 0.01546404 -0.022876415 -0.11403002
000110 a8 bd e1 bc 70 ff 8b 3d 1d 28 59 bd 85 6b c2 bd
       -0.027556255 0.0683583 -0.05301677 -0.09493164
000120 01 47 47 bd b6 cb 9f 3d 9b 98 8e 3d 8f 5b f5 3c
       -0.0486517 0.07802527 0.06962701 0.029950885
000130 47 41 0a bd c8 93 fa ba e5 59 14 3d 66 01 7d bd
       -0.03375366 -0.0019117529 0.036218543 -0.06176891
000140 f5 34 21 3b 86 e0 f6 3c 2e 41 8f bd 5c 3f a3 bc
       0.0024598215 0.030136358 -0.06994854 -0.019927673
000150 f1 f1 43 bd 74 92 73 3d f7 37 9f bd c0 af 8f bd
       -0.047838155 0.05946584 -0.07774346 -0.070159435
000160 2a f6 c2 b9 ea 78 77 bd e8 f6 c9 3c bb ba b0 bc
       -0.0003718597 -0.060418047 0.024653867 -0.021573415
000170 92 94 93 bd 5e 04 89 bb b2 f4 a1 bd 19 eb da bd
       -0.07206072 -0.004181429 -0.07908 -0.106893726
000180 8d 8e c9 bd cb be 6f bd ea 6d fa 3c 21 91 28 be
       -0.098416425 -0.058531564 0.03056999 -0.16461612
000190 9b 4e 5b bd 11 be d6 bc 70 a6 d0 bc ce 7e a8 bb
       -0.05354176 -0.026213678 -0.025469989 -0.0051420694
0001a0 43 3a c5 3c bd 1f 9a 3c 47 83 8a bb d8 3a ee bc
       0.024075633 0.018813962 -0.0042270753 -0.029080793
0001b0 7a e3 5d 3c fb 27 7d 3d a9 31 06 bd e9 00 8d 3c
       0.013543004 0.061805706 -0.032762203 0.017212348
0001c0 14 94 c3 ba 52 b5 2f bd 09 4f a3 3d 40 7d 6e bc
       -0.001492145 -0.04289753 0.07974059 -0.014556229
0001d0 69 a6 d8 3d 2a 6d 9b 3c 88 b7 38 bd 5c f8 0a 3e
       0.10578615 0.018972952 -0.045096904 0.13571304
0001e0 a2 52 9e 3c 2b a3 97 3c 9c 77 e3 bc 22 be b2 3d
       0.019326512 0.018510422 -0.027766995 0.08727671
0001f0 53 ad 35 3e fe a3 22 3d e0 7a 2c bc eb b8 90 3c
       0.17741899 0.039707176 -0.010527343 0.0176663
000200 dd fb bb 3c 64 92 71 bd 3d 65 b7 bb 74 c0 61 bc
       0.022947246 -0.0589775 -0.0055967853 -0.013778795
000210 60 2e a6 bc f1 93 39 bd 5f dc c2 3c 4b b4 d3 3c
       -0.020285785 -0.045307104 0.023786722 0.025842806
000220 b9 e6 e0 bc 7d d4 be bb 74 51 8d 3c ed e4 8d 3c
       -0.027453767 -0.0058236704 0.017250754 0.017321074
000230 14 60 4b bd f8 4e 17 bc 69 41 32 3c ee 97 e1 3c
       -0.049652174 -0.009235136 0.010879853 0.027538266
000240 08 a3 12 bc eb 71 a1 bc 8a b8 7e bd 87 f7 79 bd
       -0.0089500025 -0.01970764 -0.06218771 -0.061027076
000250 a1 a1 92 bc 87 d6 96 bb ee c0 5b ba 24 91 cb bc
       -0.017899336 -0.0046032104 -0.0008382936 -0.024849482
000260 cf 5a f7 bc 67 ab 20 bd db 81 d3 bc 9a 9f f1 bc
       -0.030194668 -0.039225962 -0.025818756 -0.02949505
000270 fc d5 ef bb 2f b4 92 3c 2e 5b b2 3d 75 1d 63 ba
       -0.00731921 0.017908184 0.087087974 -0.0008663752
000280 cf 5c 45 3c b2 8b da bc 8a d7 c8 bc 4b 05 19 3e
       0.012046053 -0.02667794 -0.02451684 0.14943425
000290 83 27 b3 3d 54 44 63 b9 6a 6b 43 bd ac 0d 51 3d
       0.08747771 -0.00021673861 -0.04770986 0.05103843
0002a0 4d dc f1 3d 7b d5 33 3c f6 03 2d bd df 3f 92 bd
       0.11809597 0.010976191 -0.042240106 -0.07141089
0002b0 2c 10 bd 3d 05 2e 3a 3d e9 5b 41 bd 53 be cc 3c
       0.092316 0.045454044 -0.047206793 0.024993097
0002c0 6d 52 40 bd f6 5d b0 bd e3 d6 4d bd ed f7 11 3c
       -0.046953607 -0.086116716 -0.05025376 0.008909208
0002d0 d9 ca 77 3c b0 b3 e5 3c 02 12 86 bb c2 70 c3 bc
       0.015124046 0.028039783 -0.004091502 -0.023857478
0002e0 90 13 aa bc 17 5d 4a 3d 14 4c 69 3d 53 a8 83 bd
       -0.020761281 0.049405184 0.05695732 -0.0642859
0002f0 78 cc 90 3c 96 b5 60 bd bb c9 dc bc e2 87 38 3c
       0.017675623 -0.054860674 -0.026951661 0.011262866
000300 87 55 b4 bc c4 93 aa bc 56 90 6b 3c a8 23 6a bd
       -0.022013439 -0.020822413 0.014377674 -0.05716291
000310 09 d9 44 bd 19 dd 87 bc ad 5b 4f bd 03 6d 67 3d
       -0.048058543 -0.01658492 -0.05062454 0.056500446
000320 b2 ed 96 bc b0 84 d9 3b 66 f7 18 bd ff 05 7e 3d
       -0.018423889 0.006638132 -0.037345313 0.062017437
000330 65 de 42 3d c0 34 2e 3d 28 02 28 bd 62 49 29 bd
       0.047575373 0.042530775 -0.04101768 -0.04132975
000340 6b 68 60 3c 6d 7a c5 3c ca 4f 42 bd 92 38 60 bd
       0.01369677 0.024106229 -0.047439374 -0.05474145
000350 79 2a 87 3d d4 2a 09 bd 4c 71 8e bd 83 fc 51 bd
       0.06599898 -0.03348811 -0.069552034 -0.051266205
000360 8f 3e 12 bd 4d ac 24 bb 83 09 5c bd 84 c0 e9 bb
       -0.03570419 -0.0025127113 -0.05372001 -0.0071335454
000370 9d 12 3c 3d 84 32 76 3c 9c 75 8e bc 19 b7 a0 bc
       0.04591619 0.015026692 -0.017390065 -0.019618558
000380 33 54 78 3d c2 1c 1e 3d 54 4e 5f bd e0 a8 78 bb
       0.060627174 0.038601644 -0.05451806 -0.0037942454
000390 a7 84 8e bd 00 54 6d bd ec 4e 06 bd 35 b0 53 bd
       -0.06958895 -0.057941437 -0.03279011 -0.051681716
0003a0 99 c1 a7 bd 81 42 ec bd 49 5f 3c bd 2c 2a 2c 3d
       -0.08191223 -0.11536122 -0.04598931 0.042032406
0003b0 68 9e 06 bc 18 86 9d bd 9c a6 ea bc 50 0d 12 bd
       -0.008216478 -0.07691592 -0.028643899 -0.035657227
0003c0 37 38 09 3c 66 3b bc bd 50 8c a0 bd 10 c0 c9 bc
       0.008375219 -0.09191017 -0.078392625 -0.024627715
0003d0 f0 88 a4 bd aa 8b 57 bd 47 67 cb bd 59 ba bf bd
       -0.08033931 -0.05262343 -0.09931808 -0.09361715
0003e0 cb f3 cd bd ca 8e 48 3c 9d bb 6c bb ec 71 dd 3c
       -0.100562654 0.012241075 -0.0036122568 0.027031861
0003f0 49 a7 0a 3b e5 73 28 3d 31 39 a7 3c ec 6c e9 bc
       0.0021156839 0.04112615 0.020413013 -0.02849432

conv2.bias f4 [20]
000000 57 b7 3b bd fe 82 8e bd 27 d7 38 3d 39 1a 2a 3d
       -0.045829143 -0.069585785 0.04512706 0.041528914
000010 eb 5f cf bc d3 be 6a bb 44 ae 45 3c b4 20 19 3c
       -0.025314292 -0.0035819307 0.012065474 0.009346176
000020 8f f4 28 bd 04 55 11 3d 63 02 b2 bd 8f e0 06 3d
       -0.041248854 0.035481468 -0.086918615 0.032929
000030 9f c2 e4 bc 7a e2 35 bc ea d4 69 bd b4 97 fc bb
       -0.027924834 -0.0111013595 -0.057087816 -0.007708514
000040 04 fe 95 bc 2a e1 39 bd b3 cb 5f 3d 7d 6f ec bc
       -0.0183096 -0.04538075 0.054637622 -0.028861756

fc1.weight f4 [50, 320]
000000 6f a2 2f 3d 2b 87 89 3b 83 a5 9d bb 1b e9 7e 3c
       0.042879518 0.0041970215 -0.0048109903 0.015558506
000010 a8 5e 34 3d 77 e2 0c 3d 27 17 09 bd 0b 18 1f 3d
       0.044035584 0.03439566 -0.033469345 0.03884129
000020 4f 66 92 bd d3 9e 1c bd 5f ac 2e bd 67 12 9c bb
       -0.0714842 -0.038237404 -0.042644855 -0.004762936
000030 50 75 b4 3c 7d 32 b1 3c 41 63 0a 3d b0 f6 56 3a
       0.022028595 0.02163052 0.033786062 0.00082002115
000040 1a e8 95 bb 52 06 85 3c d4 fd 10 3d 20 4f 2e bd
       -0.004574788 0.016238365 0.03539832 -0.04255593
000050 c4 1c 83 3c 0f aa 2e bd a8 64 ee 3c 88 63 88 3d
       0.016004927 -0.04264265 0.029100731 0.06659609
000060 3f 5f 5f bd 26 89 90 bc 96 a5 74 3c 8b c0 b9 3c
       -0.054534193 -0.017643522 0.014932057 0.02267482
000070 7a 7a e5 bc a2 06 8b 3d 61 53 a4 3c 95 a7 49 3c
       -0.028012503 0.067883745 0.02005929 0.012308021
000080 1d 2c 11 bd 01 99 17 3d 1d 7e dd bb f2 6d 9e 3d
       -0.03544246 0.03701115 -0.0067594186 0.07735814
000090 61 68 73 bc 16 21 a5 3c 5c 1a 13 bd e5 66 8b bc
       -0.014856429 0.020157378 -0.03591381 -0.017016837
0000a0 df 32 0e bd a5 72 1d bd 83 26 94 3c 2a 22 c9 bc
       -0.034716483 -0.03843941 0.01808477 -0.024552424
0000b0 83 de ea 3c 9a b0 54 bd 28 55 08 bd d8 1e 6e bc
       0.028670555 -0.051926233 -0.033284336 -0.014533721
0000c0 3e fc 47 bc 00 d7 04 bd c0 e0 3e bc 99 6a a7 3d
       -0.012206135 -0.032431602 -0.011650264 0.08174629
0000d0 cf f0 8a 3c ae 80 89 3c 62 e4 cb 3b c2 8c 55 3d
       0.01696053 0.016784992 0.0062222937 0.05213619
0000e0 61 d5 2e bd 6f 9b b4 bc 8e ad 4d 3d 2f 3f 59 bd
       -0.042683963 -0.022046773 0.050214343 -0.053038772
0000f0 61 d2 02 bd e4 61 98 3d d8 13 17 3d d4 c7 11 bd
       -0.031938914 0.07440546 0.03688416 -0.03559096
000100 88 2a 92 3c 8c 0e 91 3d 5b 3e 14 3c 91 bc 46 bd
       0.017842546 0.07082853 0.00904807 -0.048519675
000110 13 7d f4 3b ff a0 19 ba 07 fd 98 bd a2 b5 93 bd
       0.007461199 -0.0005860477 -0.07470136 -0.07212378
000120 12 8a 17 bd 76 d3 04 3b 17 d1 50 bd ad 77 b5 bb
       -0.03699691 0.0020267642 -0.050980654 -0.005537948
000130 bc 52 74 bd cc e9 c1 3c e7 df 20 3d 95 95 24 bd
       -0.059649214 0.023671053 0.03927603 -0.040181715
000140 09 26 4d 3d 1c 3a d5 3c ff 0c 4e 3d 3b c0 4f 3d
       0.0500851 0.026028685 0.050305363 0.050720435
000150 d0 d2 c0 bc d6 9d 6f bb 4b c5 2e 3d 11 37 2e 3c
       -0.023538023 -0.0036562583 0.042668622 0.010633246
000160 b3 94 ca ba 61 0e 96 bb 8a 3d 50 bd 27 78 18 3d
       -0.0015455693 -0.004579351 -0.05083994 0.03722396
000170 c0 80 40 3d e6 04 c3 bc bb 71 6b 3c 1d 5d ca 3c
       0.046997786 -0.023806047 0.014370377 0.024702603
000180 05 d7 01 3c 8d 3f 8e bb e1 15 45 bc 0e 75 a9 ba
       0.0079248 -0.004341072 -0.012029142 -0.0012928562
000190 9f cd 7c bd 93 46 28 bd a2 f8 b1 3c ad 69 85 3d
       -0.061719533 -0.04108293 0.021725003 0.06514297
0001a0 da 3b 30 bd df 91 52 3d 2e 7f 12 3d 41 0a 94 bc
       -0.04302583 0.051408645 0.03576582 -0.018071296
0001b0 b1 09 bf 3a 47 02 5a 3d 5f 70 24 3d e3 94 5d bd
       0.0014575032 0.053224828 0.040146228 -0.054097068
0001c0 c2 f9 94 bb f0 4b 34 3d 7f 2e 10 3b 9b 87 8e 39
       -0.004546375 0.044017732 0.002200037 0.00027185385
0001d0 4a c6 d6 3b de ad 3d bc 4b 4a 6b bd a1 d4 e0 3b
       0.0065543996 -0.011577098 -0.0574439 0.006861285
0001e0 9c 22 1c bc 59 38 9d bc ab 86 56 bb bd 24 22 bb
       -0.009529736 -0.019191908 -0.0032734077 -0.0024741136
0001f0 8a 99 cd bb a7 63 bc bc 35 d8 93 3d c6 4e 3a bc
       -0.006274407 -0.022996737 0.072189726 -0.01137132
000200 42 29 84 3c fa ea 2b bc 18 6a 4f 3d e8 5f 2b 3d
       0.016132955 -0.0104930345 0.05063829 0.04183951
000210 71 2c 90 3b 7d 2d 68 3d 60 15 fb bc 50 54 15 3d
       0.004399829 0.056684006 -0.03064984 0.03645736
000220 a8 0a 6c 3c e0 1d 0e 38 ea 3e 8a 3d ff 7c 46 3b
       0.0144068375 3.388326e-05 0.06750281 0.0030286906
000230 a4 fc 09 bd 5d 98 2b bc fe c9 f8 3c 4f 58 ea bc
       -0.033688203 -0.010473338 0.030369755 -0.028606562
000240 33 33 5f bd 84 51 58 3d 5c 2e 59 3c 24 08 da bc
       -0.054492187 0.052812114 0.013255682 -0.02661521
000250 99 d9 69 3c d7 f0 94 3c 41 43 4c bd 40 20 88 3d
       0.014273071 0.018181248 -0.049868826 0.06646776
000260 3c ef dd bc 0e a1 7d bb 91 11 46 3d 2c a8 14 bd
       -0.027091615 -0.0038700732 0.048356596 -0.036293194
000270 56 92 05 bd 94 a1 04 3d f2 12 73 3c f9 04 b3 bc
       -0.03261026 0.032380655 0.01483606 -0.021852957
000280 93 92 e9 3c c2 3e 4f 3d a4 3f 4f 3d 02 c3 d2 bb
       0.028512275 0.05059696 0.0505978 -0.006431938
000290 22 d4 4a 3d 85 95 a8 3c 76 71 92 bc bf 5f c7 bc
       0.049518712 0.020579109 -0.017876368 -0.024337647
0002a0 e8 28 16 bd 0e c1 3f bd 70 ce 15 3d e8 61 46 3d
       -0.036660105 -0.04681497 0.036573827 0.048433214
0002b0 4d 15 04 39 cb 32 1c bd a7 72 79 bd 4b 2a d5 3b
       0.00012596436 -0.038134377 -0.060900357 0.006505286
0002c0 34 0f f9 3c 81 85 09 bd 23 33 05 3d 0e e3 00 3d
       0.030402757 -0.033574585 0.03251947 0.031466536
0002d0 5d 20 c4 bc 96 1f 45 3c 1d 2c 52 bc a4 a5 49 bd
       -0.023941213 0.012031456 -0.0128279 -0.049230233
0002e0 dc 23 4d 3d 2e d3 af 39 08 73 55 3d 41 0b 8a bd
       0.050083026 0.00033535942 0.052111655 -0.06740428
0002f0 e3 f1 e5 bb 82 e8 b0 bc a9 03 11 bd e4 80 19 bd
       -0.0070173605 -0.021595243 -0.03540388 -0.037476435
000300 dc df fb bc 44 40 03 bd a7 e1 54 bc 1b dc 1f 3d
       -0.030746393 -0.03204371 -0.012993253 0.03902827
000310 f9 36 2f bd cf cb e1 bc 54 54 b6 bc b1 5c 12 bd
       -0.042777035 -0.027563004 -0.022257008 -0.03573293
000320 49 f5 c5 3c cc 94 aa 3c db cb 36 bc a8 92 24 3d
       0.024164813 0.020822905 -0.011157001 0.040178925
000330 b5 f7 0a bd df 96 26 3b c7 a1 45 3d 6c 06 cf 3c
       -0.033927638 0.0025419516 0.048249986 0.025271617
000340 ef 68 99 3c 24 1f 5f bd e6 78 83 3c 20 e7 33 3c
       0.018726794 -0.054473057 0.01604886 0.010980397
000350 05 8b d8 3c 5c 8f 36 3d e0 a9 82 3d 3e 87 0b 3c
       0.026433477 0.044570312 0.06380057 0.008516131
000360 29 b6 32 3d 57 ec 8b bb c4 9a 50 3d 45 cd 0c bd
       0.043630753 -0.0042701173 0.050928846 -0.034375448
000370 82 4a e3 bc 6e 0c 33 bd c9 72 0d 3d fb 49 95 bd
       -0.027745489 -0.043713026 0.034533296 -0.07289501
000380 39 d0 ed bc eb ab 15 bc 83 b1 ad 3c 6a fd f5 bc
       -0.029029952 -0.009135227 0.021202808 -0.030028064
000390 72 23 1d 3d 1d 50 39 3d ae 19 b6 bc 08 f4 52 3d
       0.03836388 0.045242418 -0.022229042 0.051502258
0003a0 e9 a0 c2 3c 8f fa 93 3c fa 3d 24 bd 08 f7 91 ba
       0.023758369 0.018063812 -0.040098168 -0.0011136243
0003b0 fe f3 00 3d 33 d5 b2 bc db d3 dc bc 07 33 1c bd
       0.03148269 -0.021830177 -0.02695649 -0.0381346
0003c0 29 06 0c 3c bc 06 35 bc fd d1 c3 3c 79 f7 16 bd
       0.008546391 -0.011048969 0.023903841 -0.036857102
0003d0 d6 06 e6 bc 61 02 c1 bc 96 09 88 3c 1f 27 85 3d
       -0.028079432 -0.023560705 0.016606133 0.065016024
0003e0 d2 06 fe bc 36 c7 3b 3d 38 4a e9 3b 51 99 29 bd
       -0.031009112 0.04584428 0.0071194433 -0.04140598
0003f0 bf 7e 90 3b 90 05 b6 bc 8c d0 1f 3d c5 d6 b7 3c
       0.0044096406 -0.02221945 0.039017245 0.022441277

fc1.bias f4 [50]
000000 6f 53 27 bd 4f fc 2d 3b 26 16 b7 bc 2d 5c 17 3c
       -0.040851053 0.0026548093 -0.022349428 0.009238285
000010 e9 45 48 bd f2 fd 60 bc 3e 0f ef bc c9 c3 9d 3b
       -0.048894797 -0.01373242 -0.029182073 0.004814599
000020 2b 53 8b 3d 16 a0 1e 3d ca f6 56 3c c2 78 5e 3b
       0.068029724 0.03872689 0.013120363 0.003394649
000030 f6 a5 2e 3a 2e 43 c2 bc da 30 2c bd c1 a1 39 bd
       0.00066623033 -0.023713674 -0.042038776 -0.045320276
000040 cd 3d 1c bd 5c 6d 36 3d 14 96 ff 3c 93 33 3f bb
       -0.038144875 0.044537887 0.031199493 -0.0029175028
000050 cb ca 22 3d ca 20 41 bd 03 87 d1 bc 90 61 af bc
       0.03974418 -0.04715041 -0.025577074 -0.021408826
000060 3d c1 8c 3d a0 8c 5a 3d f7 74 60 3d 9a b5 5b bd
       0.06872795 0.053356767 0.054799046 -0.053639986
000070 19 29 0e 3d e1 6f 27 3d 17 9d 12 bd d8 67 e2 bb
       0.034707163 0.04087818 -0.035794344 -0.006909352
000080 f4 bb 49 3d a1 46 31 bd fd 46 dc 3c a1 04 6b 3d
       0.04925151 -0.043280248 0.026889319 0.05737746
000090 a2 7c 73 39 e4 4a 0c 3d 81 3f 2b bd f4 6a 87 3d
       0.00023220715 0.03425111 -0.04180861 0.066121966
0000a0 9a 32 59 bc 8b 46 48 3a 12 da 5e 3d 6b ef 90 3d
       -0.013256693 0.0007639906 0.054407187 0.07076915
0000b0 44 29 50 3d 57 1e 3b 3d 5c 85 48 3d 3d 8d 40 3d
       0.050820604 0.04568323 0.048955306 0.047009695
0000c0 d7 e4 f0 bc a3 ba 54 3d
       -0.029405994 0.051935803

fc2.weight f4 [10, 50]
000000 01 4d a3 3d 6c 9e 43 bd 1f 3f 25 3e b3 f9 ad bc
       0.07973672 -0.047758505 0.1613736 -0.02123723
000010 7d 76 43 be d6 96 8a bd ed 64 45 be 80 dc 0a be
       -0.19088168 -0.06767051 -0.19276781 -0.13560677
000020 0d 64 94 be 6d b6 6b bd 2a 99 db bd 82 b9 91 3d
       -0.28982583 -0.05754702 -0.10722573 0.07115461
000030 93 d8 91 bd f9 c7 45 3e ae ba de bd 02 53 07 3e
       -0.071213864 0.19314565 -0.1087545 0.13215259
000040 7b 6c 1c 3e e5 77 7e 3d 4c eb 64 bd dd a3 0b be
       0.15275757 0.06212606 -0.05588846 -0.13636728
000050 a1 9f e6 3d 98 64 00 be 2b e4 3b 3e 63 44 11 3e
       0.112609155 -0.12538373 0.18348758 0.14186244
000060 8f 9a 0b be 32 4a 58 3d 92 33 42 be 05 5a 76 be
       -0.13633178 0.052805133 -0.18964985 -0.24057777
000070 98 e9 3a 3e 50 fa 6e 3e c4 0d 5a 3e 9c 04 05 be
       0.18253171 0.23337674 0.21294314 -0.1299004
000080 db fd 22 3e e5 ac 99 3d 77 1c 4f be b7 21 32 bd
       0.1591715 0.0750368 -0.20225702 -0.043489184
000090 97 e8 85 bd 9d ac 36 3e b0 be 5c be 63 50 1d 3e
       -0.065385036 0.17839284 -0.21557117 0.15362696
0000a0 25 77 40 be 5c 61 63 be 75 28 bc bd a9 70 f0 bd
       -0.1879545 -0.22205108 -0.09187404 -0.11740238
0000b0 88 90 06 be 23 36 fb 3d f0 6f 30 be d5 2c 07 be
       -0.13141072 0.12266185 -0.17230201 -0.13200696
0000c0 27 2c e7 bd bc 3e 81 3e 5f fd 10 3d ad bd bd bb
       -0.11287718 0.25243175 0.035397884 -0.0057904334
0000d0 34 9f 99 be 4a 4a 68 bd f0 4b 45 be c2 bf 2c 3e
       -0.30004275 -0.056711473 -0.19267249 0.16870025
0000e0 25 42 14 3e 53 a5 55 bd 4a 8c bc 3d 5b 3f 10 3e
       0.14478357 -0.05215962 0.092064455 0.14086668
0000f0 eb 51 52 3e e7 49 28 be 85 1d 9c bd 2a 70 13 3d
       0.20539062 -0.16434442 -0.07622818 0.03599564
000100 1f 32 3f 3e ce 15 65 be 5d 46 e8 bd 46 e0 97 3d
       0.18671463 -0.22371599 -0.11341546 0.07415824
000110 7b 67 9d bc 25 ee 46 3d a5 49 4a 3e 4f e3 21 3e
       -0.019214382 0.048566956 0.19754656 0.15809368
000120 32 0a 1a be b5 6c 20 be 59 6e 45 3e ab d0 c6 3c
       -0.15042952 -0.15666468 0.19280376 0.024269423
000130 83 5f 25 3e cb e1 ba bd 50 21 be bd bf 3f 3e 3d
       0.16149716 -0.09125098 -0.092836976 0.04644751
000140 3c 9a 3c be 24 fc 6f 3e d1 cc a6 3d dd 01 88 be
       -0.1841821 0.23436028 0.081445344 -0.26563922
000150 04 a7 0b 3e 5d 6b 78 3e 50 36 1c 3d 0e ab 55 be
       0.1363793 0.24259706 0.038137734 -0.20866033
000160 ee e9 21 be b2 38 f3 bd 6a 90 88 be 83 68 76 3e
       -0.15811893 -0.11876048 -0.2667268 0.24063306
000170 30 14 57 3e e5 1d 71 3e 6e 63 2d be c8 89 b6 3c
       0.21003795 0.2354656 -0.1693246 0.022282496
000180 aa e7 36 be ce 54 22 3e 1a 7c 34 be db 69 7e 3d
       -0.1786181 0.15852663 -0.17625466 0.06211267
000190 1a f0 06 bd 5c 70 56 3e a1 62 5a be 43 0f 72 3e
       -0.032943822 0.20941299 -0.21326686 0.23638634
0001a0 9d a9 05 bd 8a 63 f4 3d 70 8e 26 be f4 7e 45 3e
       -0.03263246 0.11933048 -0.16265273 0.1928671
0001b0 c4 20 31 be ff d7 71 3d cf be c2 3d 74 dc ba 3d
       -0.17297655 0.05904388 0.0950905 0.09124079
0001c0 5e ba 54 3e de d7 51 be b5 94 22 3e b7 60 b6 3d
       0.20774218 -0.20492503 0.1587704 0.08905166
0001d0 44 39 c5 3d 1e cf 2e bb d9 24 d9 3b 87 4f 9e 3d
       0.09630063 -0.0026673744 0.006626707 0.077300124
0001e0 fe 55 ed 3c ac 97 44 be 42 69 94 bd 3d 5f b0 bd
       0.028971668 -0.19198483 -0.07246639 -0.08611915
0001f0 54 74 b0 bd 57 00 c9 bd 25 35 fe bd a8 d6 c6 3d
       -0.08615938 -0.09814518 -0.1241248 0.09708911
000200 ed bc ab bd 38 91 35 3e 93 e7 0d 3e 82 7a 1b 3e
       -0.08385644 0.17731178 0.1385787 0.15183452
000210 a1 9b d6 3d e9 94 c9 3d 52 22 fd 3d b1 e2 5e 3e
       0.104789026 0.098428555 0.12360062 0.21766163
000220 8f bb c9 3d 26 b7 ef 3d 71 57 f7 3d 0b 42 9e bd
       0.09850227 0.11704855 0.12077225 -0.077274404
000230 c4 cd 31 be d0 1d 25 be 11 5b d4 bd ba f9 50 3e
       -0.1736365 -0.16124654 -0.10368932 0.20407763
000240 37 dc 30 be 54 13 da 3d e9 85 25 be c0 e5 25 bd
       -0.17271505 0.10648218 -0.16164364 -0.04050231
000250 31 f2 f2 3d 0b 0d 24 3e ff 24 9d 3d 78 f9 14 bd
       0.118626006 0.160206 0.07673072 -0.036370724
000260 b0 68 2d be 74 e6 a3 bd ba e2 f4 3c 8d b8 13 3e
       -0.16934466 -0.0800294 0.029893268 0.1442587
000270 cc 40 b9 bd 57 b8 a8 bd ce fe d2 3d dd 79 2f 3d
       -0.09045562 -0.08238285 0.103025064 0.042840827
000280 f6 05 42 be 49 44 3f be bc 3d 84 3e 66 a6 6f 3d
       -0.18947586 -0.18678392 0.2582835 0.0585083
000290 c3 f3 aa 3d 86 b6 f9 3d 98 f6 f6 3d d7 de 7e 3e
       0.08347275 0.12193017 0.12058753 0.24889694
0002a0 fb 5d fd 3d 41 31 3a bd 98 2c 79 bd cc 51 36 3e
       0.12371441 -0.04545713 -0.060833544 0.1780464
0002b0 73 8c 09 be a2 35 64 3d 2a 8c d0 bd ca 25 6e 3e
       -0.13432483 0.05571521 -0.10182984 0.23256603
0002c0 91 be 37 3e f3 84 b6 3d 99 4a 1b be eb fb 07 be
       0.17943789 0.08912077 -0.15165175 -0.13279693
0002d0 e4 29 78 bd d4 5e b4 bd 3d 43 11 3d 50 57 cb bd
       -0.060586825 -0.088071495 0.035464514 -0.09928763
0002e0 67 33 06 3e e4 de 32 3d c1 66 ef 3d 03 c8 f4 3d
       0.13105546 0.043669596 0.116895206 0.11952212
0002f0 a2 4e 2b 3e 46 b1 1e bd 79 82 8c 3d 25 92 15 be
       0.16729215 -0.03874328 0.06860823 -0.14606531
000300 2d 21 79 be 36 64 34 3e 24 f3 d3 bd 32 86 cd 3d
       -0.24329062 0.17616352 -0.1034911 0.10035361
000310 3e f8 3a bd 7f 56 1d be c3 a4 b0 3d 25 a1 27 be
       -0.0456469 -0.15365027 0.08625176 -0.16370066
000320 4a 63 0a 3c 6f a3 53 bd f4 db ae 3d 9e 0e 9b bd
       0.008446524 -0.051669534 0.085380465 -0.075711474
000330 d3 5b 48 3d 9d 6e 25 3e e9 10 eb 3b c9 02 2b 3e
       0.048915695 0.16155477 0.0071736467 0.16700281
000340 00 35 19 3e d2 a2 a1 3d 4d d9 5d 3e e9 5c e2 3d
       0.14961624 0.07892384 0.21664925 0.110528775
000350 41 65 9f bd b0 18 1a 3e b6 af 07 be aa ae ae be
       -0.077829845 0.1504848 -0.13250622 -0.34117633
000360 b3 86 6e be 07 6e c2 bd 92 5f 52 bd 76 5b 47 be
       -0.23293571 -0.09493642 -0.051360674 -0.19468483
000370 b6 39 fd bc 32 2b 6a bc 2e 10 36 be 90 22 5f be
       -0.030911308 -0.014292525 -0.1777961 -0.21790528
000380 4d 4d 09 3e 0e de fd 3c 64 7a 49 be a6 32 ce 3d
       0.13408394 0.030989673 -0.19675595 0.10068254
000390 82 b0 c0 bd bf 1e 36 be a6 56 47 3e 64 ef 03 be
       -0.09408666 -0.17785166 0.19466648 -0.12884289
0003a0 00 29 8a 3d 5d d7 d2 3d a3 01 27 be 9f 4c 33 be
       0.067461014 0.102949835 -0.16309218 -0.17509697
0003b0 2b 3b 86 bd b8 2e 4d be 45 bf 54 3e c2 2c 3d 3e
       -0.06554254 -0.20037353 0.20776089 0.18474105
0003c0 ad 6c 86 3d d9 45 30 3e f1 e9 48 3e 7a ba 2b be
       0.06563697 0.17214145 0.19620492 -0.16770354
0003d0 c7 50 05 3e 4e a2 a2 be fb c5 0d 3e 18 32 0f bd
       0.13019095 -0.31764454 0.13845055 -0.034959882
0003e0 5d f4 27 3e 73 8e 67 3d 34 8a 26 3e 76 9a d0 bd
       0.16401811 0.056532335 0.16263658 -0.10185711
0003f0 53 03 e8 3d 85 94 0b be a5 35 e6 3c 93 f4 47 be
       0.11328759 -0.13630874 0.028101752 -0.19526891

fc2.bias f4 [10]
000000 6c f9 1b 3e e3 85 2f 3e ac f2 06 be be c5 03 be
       0.15231866 0.17140917 -0.1317851 -0.12868401
000010 ce e4 41 be e7 f7 17 bd b4 bc 8d bd 5c c5 18 be
       -0.18934938 -0.037101652 -0.06920758 -0.14919037
000020 a9 9c 17 3d 26 62 36 3e
       0.037014637 0.17810878
