results/model.pth (torch, 89871 bytes, 8 tensors)

conv1.weight f4 [10, 1, 5, 5]
0.08839452 -0.121621475 0.03558792 0.004810776 -0.14242041 0.05268421 -0.18969788 -0.063691586
-0.16450675 -0.12573904 0.11734106 -0.15975446 -0.0056182933 0.04208763 -0.16938667 0.12272033
-0.017138543 -0.1381938 0.10713151 0.048057146 0.2082456 -0.061810493 0.21995194 -0.050990995
-0.0785935 0.2851703 0.30715814 -0.06743813 -0.103241384 -0.031265587 0.33958575 0.39514813
0.4338851 0.42892435 0.24369834 -0.1339955 0.043213077 0.23049945 0.2547717 0.07305854
-0.09864301 -0.23571822 -0.097603574 -0.26000825 -0.13203713 -0.43819654 -0.45041746 -0.4679008
-0.29596153 -0.07413265 0.199229 0.20873904 -0.08238455 -0.039800644 -0.17624736 0.008173662
-0.16714339 0.07467229 0.06676844 -0.1237508 0.024876392 -0.03648317 -0.0012528213 -0.03578136
0.13365024 -0.054922562 0.11170035 -0.2142503 -0.16439614 0.013716095 -0.08123314 -0.05711957
-0.20781757 0.16224562 -0.029777946 0.12785842 -0.27278748 -0.051319264 -0.32108608 -0.3186592
0.11367405 -0.048931208 -0.22104675 -0.32671407 -0.05237728 0.05582555 0.1772113 0.18700354
0.06981947 0.15879555 0.05072475 0.12564297 0.10563086 0.37149122 0.091462396 0.08473213
0.1481602 -0.04758675 -0.016374411 0.19588295 -0.20289221 -0.03905717 -0.02061187 -0.13117826
0.14083922 -0.10975894 -0.09135394 -0.10020757 0.16433811 -0.015733054 -0.07931483 -0.06203326
-0.008925666 0.3014538 -0.08667896 0.26868978 0.2156501 0.12127534 0.2679474 -0.15959996
0.0024467648 0.20970587 0.15652175 0.064499974 -0.18861723 0.15142608 0.24148482 0.3321159
0.025270393 0.19978188 0.16820866 0.13533868 0.19284584 0.26526842 -0.07345659 -0.22886313
-0.10831401 0.31281233 0.31719428 -0.14875709 -0.10761681 -0.122635126 0.10537593 0.3051213
-0.0029094366 -0.13753457 -0.1952423 0.19873697 0.32364547 -0.119657114 0.034036726 0.03340356
-0.12448315 0.007137992 0.063872464 0.04742186 0.22606443 0.24885334 0.1758643 0.018226571
0.26443458 0.50348514 0.24546833 -0.042020053 0.003855568 0.33490455 0.59446615 0.27908796
0.21507509 -0.19543432 0.34253332 0.36597285 0.05130107 -0.030414658 0.012103057 -0.04134853
-0.028703265 0.14039944 0.015791373 0.1958889 -0.08170891 -0.11564296 0.18864392 0.20441405
-0.13715556 -0.19979888 0.0971021 0.09351955 0.118089624 0.033717375 -0.23713669 -0.17337115
0.29850593 0.24277924 0.15521769 -0.11039761 -0.11326981 0.24838941 0.21203853 0.11375731
-0.046913635 -0.033985972 0.0887077 0.028009532 -0.15955089 0.08152785 -0.26531547 -0.23197897
-0.13831116 -0.0075823846 0.20715249 0.2633636 0.1892226 0.20015676 0.025342982 0.35528195
0.07712553 0.09790758 0.04798061 -0.028177598 0.13726799 -0.05822941 -0.070138246 0.025829079
0.20161366 -0.17862332 0.11306794 0.06555523 -0.07597515 0.17805688 0.011917701 -0.055703744
-0.10015785 0.11368939 -0.05471727 -0.17459111 -0.08717377 0.20721334 -0.042850766 -0.16644308
0.0155244805 0.14352445 0.19757263 -0.05376708 -0.034235973 -0.208941 -0.14521956 -0.13707162
0.0789827 0.12984811
00000000: 3008 b53d ae14 f9bd a4c4 113d b7a3 9d3b
00000010: a8d6 11be 66cb 573d 2940 42be bc70 82bd
00000020: 7574 28be bcc1 00be 8250 f03d ac96 23be
00000030: a919 b8bb 1464 2c3d b373 2dbe cc54 fb3d
00000040: 2166 8cbc ad82 0dbe c467 db3d 92d7 443d
00000050: 563e 553e 002d 7dbd 153b 613e efdb 50bd
00000060: a1f5 a0bd d701 923e d543 9d3e 011d 8abd
00000070: 3870 d3bd 5810 00bd 2fde ad3e db50 ca3e
00000080: 3026 de3e f99b db3e 0f8c 793e 1e36 09be
00000090: 3200 313d 0c08 6c3e 7071 823e b79f 953d
000000a0: 5905 cabd 1e60 71be 62e4 c7bd cd1f 85be
000000b0: be34 07be 4c5b e0be 1e9d e6be b290 efbe
000000c0: 4588 97be dcd2 97bd b002 4c3e b0bf 553e
000000d0: 3bb9 a8bd 0006 23bd 307a 34be d3ea 053c
000000e0: a327 2bbe c9ed 983d e4bd 883d 0f71 fdbd
000000f0: 93c9 cb3c 606f 15bd b535 a4ba 7a8f 12bd
00000100: 9cdb 083e 7bf6 60bd 27c3 e43d 6e64 5bbe
00000110: 7657 28be 79b9 603c 8f5d a6bd 36f6 69bd
00000120: 21ce 54be b723 263e e1f0 f3bc 51ed 023e
00000130: cdaa 8bbe 2634 52bd 6565 a4be 4c27 a3be
00000140: f1cd e83d 176c 48bd 145a 62be 1147 a7be
00000150: 8f89 56bd 55a9 643d e176 353e db7d 3f3e
00000160: 83fd 8e3d 4d9b 223e c1c4 4f3d 8da8 003e
00000170: fe54 d83d 1934 be3e a350 bb3d 0a88 ad3d
00000180: 4fb7 173e 53ea 42bd a123 86bc 8a95 483e
00000190: fac2 4fbe 69fa 1fbd 39da a8bc 9853 06be
000001a0: 2838 103e 4cc9 e0bd c617 bbbd a039 cdbd
000001b0: 4048 283e 9be2 80bc d06f a2bd 9616 7ebd
000001c0: f53c 12bc 2758 9a3e bd84 b1bd b591 893e
000001d0: 61d3 5c3e 355f f83d 6730 893e 2c6e 23be
000001e0: e759 203b 23bd 563e 3d47 203e 9018 843d
000001f0: e024 41be 700f 1b3e cc47 773e 180b aa3e
00000200: db03 cf3c 9f93 4c3e e43e 2c3e 3996 0a3e
00000210: 6179 453e 43d1 873e 6970 96bd 195b 6abe
00000220: bcd3 ddbd f028 a03e 4a67 a23e c753 18be
00000230: 3466 dcbd 2028 fbbd 56cf d73d dc38 9c3e
00000240: 3fac 3ebb ddd5 0cbe 99ed 47be b481 4b3e
00000250: dcb4 a53e ca0e f5bd 186a 0b3d 2cd2 083d
00000260: 06f1 febd d1e5 e93b 91cf 823d 6d3d 423d
00000270: 6f7d 673e 69d3 7e3e c515 343e e44f 953c
00000280: f863 873e 67e4 003f 0d5c 7b3e 381d 2cbd
00000290: b2ad 7c3b 9c78 ab3e ef2e 183f 9ee4 8e3e
000002a0: a53c 5c3e ef1f 48be 8760 af3e cb60 bb3e
000002b0: 1221 523d 2928 f9bc e64b 463c 145d 29bd
000002c0: 1c23 ebbc dfc4 0f3e e95c 813c 1a97 483e
000002d0: 0057 a7bd 37d6 ecbd df2b 413e eb51 513e
000002e0: 8272 0cbe 1498 4cbe 77dd c63d 2e87 bf3d
000002f0: f9d8 f13d 3b1b 0a3d f6d3 72be 3588 31be
00000300: c5d5 983e 1f9b 783e 63f1 1e3e 2418 e2bd
00000310: 01fa e7bd cb59 7e3e a120 593e 98f9 e83d
00000320: 8328 40bd e034 0bbd 62ac b53d 3f74 e53c
00000330: 4f61 23be 13f8 a63d 6ed7 87be e58b 6dbe
00000340: 71a1 0dbe a775 f8bb c81f 543e 98d7 863e
00000350: 92c3 413e e5f5 4c3e 169c cf3c 84e7 b53e
00000360: fdf3 9d3d c583 c83d 5187 443d b5d4 e6bc
00000370: fb8f 0c3e f681 6ebd a4a4 8fbd 8197 d33c
00000380: d073 4e3e 08e9 36be 2a90 e73d d241 863d
00000390: dc98 9bbd 8b54 363e 7642 433c 9c29 64bd
000003a0: 8f1f cdbd fcd5 e83d 371f 60bd 03c8 32be
000003b0: 2988 b2bd bc2f 543e 4984 2fbd 0e70 2abe
000003c0: 645a 7e3c 13f8 123e 7b50 4a3e df3a 5cbd
000003d0: 053b 0cbd a1f4 55be 70b4 14be 815c 0cbe
000003e0: afc1 a13d e7f6 043e

conv1.bias f4 [10]
0.075317465 0.09355158 -0.10791889 0.15925725 0.14414641 0.024978308 0.27881128 0.14109372
-0.14286293 -0.012515867
00000000: 0b40 9a3d f997 bf3d 9404 ddbd 5514 233e
00000010: 1e9b 133e 4f9f cc3c 5ac0 8e3e df7a 103e
00000020: a94a 12be 5a0f 4dbc

conv2.weight f4 [20, 10, 5, 5]
0.051104248 0.020762885 -0.054613214 0.046089604 0.0018283401 -0.0035532184 0.018992957 -0.06564433
0.021673312 -0.025190886 -0.023827631 0.01257845 0.009354089 0.03826054 -0.043524556 0.034747295
0.04491619 -0.046551406 -0.0032480326 -0.016936397 -0.05048225 0.022451233 -0.03028117 -0.042640485
0.03438548 0.016645933 -0.03598987 -0.09371647 0.025104638 -0.06493295 -0.056731116 -0.10777295
-0.06659573 0.027138779 -0.07760838 -0.105176196 -0.069356 -0.0077404687 0.024876263 -0.1443134
-0.03441802 0.004262557 -0.048238467 -0.0878359 -0.048889972 -0.06989633 0.00032582303 0.013050437
-0.011636626 -0.03481302 -0.037899785 0.004341537 0.023579625 0.0063318275 0.051128816 0.06448135
-0.028030692 0.04723459 0.019780673 -0.026962327 0.012842359 -0.042665258 0.062511995 0.073340826
-0.06376228 -0.0524034 0.038350295 0.062466387 0.030206744 0.043256883 -0.021866925 0.026547754
-0.019348925 -0.046896096 -0.04719018 -0.06458927 -0.053706147 -0.005241649 -0.07719668 -0.025683349
0.046089757 -0.014929573 -0.025649758 0.020839414 0.019416628 -0.006910981 -0.06827253 -0.060942933
0.023674892 -0.07332644 -0.015092053 -0.044563305 0.022342132 0.04108943 -0.085660495 -0.04937227
-0.008229848 0.02656832 0.054939397 -0.008456527 -0.102227755 0.07006493 -0.010298468 -0.021011634
-0.1113279 -0.042442963 0.124254115 0.012954448 -0.09066041 -0.045470975 0.033087574 0.0756821
-0.0010627735 -0.014172421 -0.050079472 0.025950322 -0.03434272 0.03181574 -0.08245652 0.057322193
0.029288558 -0.059698205 -0.053218488 0.04737478 -0.009380691 0.029162122 0.1240394 0.100555286
-0.02356323 0.008923307 -0.06359735 0.11190132 0.041196186 -0.04606702 -0.046222657 0.03038004
0.044841792 -0.06325773 -0.13664916 -0.09259227 0.003663641 0.020785213 -0.06983171 -0.029496368
-0.018726744 -0.008913068 0.04901843 -0.05436465 -0.060232516 -0.016509008 -0.19280481 -0.069384485
0.17155893 0.07808267 -0.105289325 -0.090601146 0.044006284 0.16929354 0.0019367321 -0.23386754
0.027088974 0.04737075 0.09790286 -0.050644957 -0.09532182 0.062228557 -0.015382064 -0.0640779
-0.08325759 0.005337968 0.011829624 -0.0853235 0.033897657 0.055449508 0.1002646 0.04189074
0.052886758 -0.0013728358 -0.022781124 -0.08776471 -0.0052781026 0.10345839 0.08274243 -0.12180695
0.006618008 0.05441729 0.1135767 -0.05442644 -0.025870891 -0.036182515 -0.041489955 0.0805588
-0.05701431 -0.087820075 0.046420034 0.024296556 0.0117607955 0.032263853 0.012414525 0.10437259
-0.049062908 -0.11766862 0.005233049 0.048043575 0.026476707 0.00050303526 -0.06775481 0.030934444
0.021192258 -0.10342099 -0.04728365 -0.013167224 -0.014174687 -0.07023445 -0.048705947 -0.030519905
-0.038211185 -0.06672753 -0.062459454 -0.015186337 0.0564604 0.035257258 0.00035452182 0.03516834
-0.01805492 -0.021681827 -0.02951943 -0.03456899 0.031872615 -0.043887053 0.035889156 0.0068475897
0.035439357 -0.06514739 0.011740659 0.031579375 0.009333666 -0.03688936 -0.0120377885 -0.01468563
0.030294184 0.027728911 -0.03988117 0.01482343 -0.054692477 -0.047789685 -0.03478361 0.021939665
0.05581297 -0.055900045 0.068356514 0.06136703 -0.02588362 0.030576322 0.020266196 -0.05165971
00000000: b052 513d ed16 aa3c 1bb2 5fbd 74c8 3c3d
00000010: eaa4 ef3a 1ddd 68bb 1e97 9b3c 8970 86bd
00000020: 3b8c b13c 1e5d cebc 2a32 c3bc d815 4e3c
00000030: e541 193c 16b7 1c3d ce46 32bd 2e53 0e3d
00000040: 0afa 373d b0ac 3ebd f2dc 54bb 33be 8abc
00000050: 7ac6 4ebd a6eb b73c 3710 f8bc caa7 2ebd
00000060: cad7 0c3d 0d5d 883c 1d6a 13bd 6cee bfbd
00000070: 3ea8 cd3c 91fb 84bd e35e 68bd 10b8 dcbd
00000080: 5863 88bd 2552 de3c 24f1 9ebd 9e66 d7bd
00000090: 850a 8ebd c2a3 fdbb 4ec9 cb3c e4c6 13be
000000a0: e9f9 0cbd ebac 8b3b b395 45bd 4fe3 b3bd
000000b0: da40 48bd cf25 8fbd 3ad3 aa39 80d1 553c
000000c0: 8ca7 3ebc 1998 0ebd ce3c 1bbd 7443 8e3b
000000d0: 0f2a c13c 387b cf3b 736c 513d cc0e 843d
000000e0: 9fa0 e5bc 0f79 413d 140b a23c 19e0 dcbc
000000f0: c268 523c c4c1 2ebd 4a06 803d b733 963d
00000100: cc95 82bd f3a4 56bd 3315 1d3d c1dc 7f3d
00000110: 2274 f73c 212e 313d 4422 b3bc ad7a d93c
00000120: a381 9ebc 1f16 40bd 7d4a 41bd 6147 84bd
00000130: fafa 5bbd 24c2 abbb 4b19 9ebd e365 d2bc
00000140: 9dc8 3c3d 2b9b 74bc 711f d2bc 6bb7 aa3c
00000150: 9f0f 9f3c 8375 e2bb 78d2 8bbd 4c9f 79bd
00000160: d9f1 c13c 2c2c 96bd a944 77bc 0388 36bd
00000170: d906 b73c 644d 283d c56e afbd 943a 4abd
00000180: 7cd6 06bc cea5 d93c 2208 613d 3f8d 0abc
00000190: c95c d1bd 347e 8f3d e8ba 28bc 9720 acbc
000001a0: e2ff e3bd acd8 2dbd f178 fe3d e53e 543c
000001b0: 2aac b9bd c63f 3abd d686 073d 38ff 9a3d
000001c0: c34c 8bba 7133 68bc 2220 4dbd c595 d43c
000001d0: f4aa 0cbd 3951 023d f7de a8bd adca 6a3d
000001e0: 8fee ef3c 1b86 74bd a1fb 59bd 0f0c 423d
000001f0: 78b1 19bc 67e5 ee3c 5e08 fe3d eeef cd3d
00000200: ad07 c1bc 1033 123c 543f 82bd 852c e53d
00000210: 55bd 283d c6b0 3cbd f853 3dbd 90df f83c
00000220: 07ac 373d 458d 81bd c2ed 0bbe 04a1 bdbd
00000230: b219 703b c045 aa3c ed03 8fbd 5ea2 f1bc
00000240: d468 99bc 1e08 12bc 8dc7 483d 78ad 5ebd
00000250: 5fb6 76bd e63d 87bc a06e 45be 7419 8ebd
00000260: 25ad 2f3e cfe9 9f3d eea1 d7bd 188d b9bd
00000270: ef3f 343d 495b 2d3e f2d9 fd3a f97a 6fbe
00000280: b2e9 dd3c d507 423d 4b81 c83d 1671 4fbd
00000290: 1638 c3bd 5fe3 7e3d 0d05 7cbc 463b 83bd
000002a0: f582 aabd 1fea ae3b 0ad1 413c 16be aebd
000002b0: 45d8 0a3d 061f 633d 8757 cd3d a095 2b3d
000002c0: c99f 583d baf0 b3ba 7b9f babc fcbd b3bd
000002d0: eff3 acbb fee1 d33d dd74 a93d ec75 f9bd
000002e0: e0db d83b aae4 5e3d e79a e83d 42ee 5ebd
000002f0: 31ef d3bc 1e34 14bd 5ff1 29bd 03fc a43d
00000300: d687 69bd 03db b3bd ef22 3e3d 9209 c73c
00000310: 5ab0 403c 1a27 043d 4b66 4b3c 4cc1 d53d
00000320: 30f6 48bd 3ffc f0bd ff79 ab3b 57c9 443d
00000330: aee5 d83c 20de 033a 09c3 8abd 3b6a fd3c
00000340: 639b ad3c 62ce d3bd 80ac 41bd 57bb 57bc
00000350: f23c 68bc 14d7 8fbd e37f 47bd e104 fabc
00000360: 5583 1cbd 71a8 88bd 7cd5 7fbd 1dd0 78bc
00000370: 0543 673d ea69 103d 1ddf b939 ad0c 103d
00000380: e9e7 93bc 169e b1bc bbd2 f1bc 3798 0dbd
00000390: dc8c 023d e9c2 33bd 8200 133d bf61 e03b
000003a0: dc28 113d ff6b 85bd e55b 403c 6059 013d
000003b0: 3cec 183c 4c19 17bd 253a 45bc ff9b 70bc
000003c0: 822b f83c be27 e33c 705a 23bd f9dd 723c
000003d0: 3805 60bd 1ebf 43bd 4279 0ebd d0ba b33c
000003e0: 249c 643d 72f7 64bd 80fe 8b3d ff5b 7b3d
000003f0: e309 d4bc 327b fa3c 4b05 a63c 2299 53bd

conv2.bias f4 [20]
-0.020978587 -0.038039874 -0.0594771 0.03290082 -0.0068088947 0.044026468 -0.026016308 0.008715293
0.029915204 0.06126159 0.045678765 0.011954554 -0.031556956 -0.012326356 0.005515451 0.042148687
0.0075941156 -0.08060905 0.056629315 0.028599419
00000000: 49db abbc b3cf 1bbd 429e 73bd 03c3 063d
00000010: 261d dfbb 1955 343d 2720 d5bc 97ca 0e3c
00000020: bb10 f53c 6fed 7a3d a819 3b3d 09dd 433c
00000030: de41 01bd 7cf4 49bc f5ba b43b 1aa4 2c3d
00000040: 0fd8 f83b 5c16 a5bd 24f4 673d 5449 ea3c

fc1.weight f4 [50, 320]
-0.0032048472 -0.026242211 -0.0808215 -0.06749076 0.041654546 -0.05992072 0.015373183 0.015318885
-0.08065835 -0.018180184 0.0067630606 -0.033157185 -0.020742686 -0.020796532 0.04865092 0.09978316
-0.018656235 -0.019489963 -0.029178249 0.068444565 0.0061642434 -0.014528764 -0.02097375 0.031600792
0.04209342 0.0720186 0.06581461 0.0071922317 -0.011667741 0.027961234 -0.013055803 -0.06996241
0.02890124 0.020783586 0.051028147 -0.013946185 -0.080377 -0.001383378 0.05503518 0.013358488
-0.046191506 -0.027146354 -0.1351415 -0.11428798 0.067527294 0.06344807 0.06462821 0.025353728
-0.027633896 -0.029950082 -0.06786058 0.023440298 0.035499748 -0.09866466 0.008790273 -0.090938516
-0.065718055 -0.027903749 0.01001776 0.08031901 0.033199124 -0.05962095 0.023136936 0.006090331
0.013899466 -0.005384857 0.004554526 0.024828764 0.0038351307 -0.037506085 -0.06891255 -0.085048325
-0.01693415 -0.05860055 0.021379268 0.057955652 0.084852874 -0.021989133 0.008218823 0.011294046
0.03663175 0.0046493127 0.030738277 0.0299664 0.07802418 0.025233839 -0.0142785255 -0.035789285
0.014684502 -0.037131086 0.020512285 0.047611047 -0.046626456 -0.056706827 0.025990084 -0.0052070203
-0.018580733 -0.049511727 -0.0057223435 0.0077980533 -0.064664245 -0.051125508 -0.026230518 -0.032382496
0.0072793816 -0.024453927 -0.07379253 0.072627716 0.1005211 0.053238083 -0.05189522 0.0041343966
-0.06330383 -0.02651454 -0.004645717 0.060433548 -0.02668083 0.04653225 -0.030566221 0.00076175376
0.08997503 0.12965076 0.005002801 -0.060002655 0.04760404 0.013562501 0.0034226472 -0.121442676
-0.017336907 -0.021867324 0.03837789 0.057789885 -0.0035976577 0.024457486 -0.031595524 -0.049492013
-0.030612683 -0.03281598 0.020523898 0.05479001 -0.0136875985 -0.026720744 -0.03603515 -0.004220151
0.01304689 -0.017798679 0.035771765 -0.0077185235 -0.047761332 -0.032552492 -0.037423547 -0.07834324
-0.019455554 -0.010645539 -0.0014388759 0.121573016 -0.05120832 0.020783791 -0.0563481 -0.024477636
-0.024846444 -0.012642695 0.03237185 -0.011606565 0.04548733 -0.039557062 -0.026298666 0.018084949
0.010951819 0.023328293 0.024778627 -0.05970206 0.03232357 -0.011236206 -0.08280529 -0.03513592
0.031730957 0.0026000994 0.04210037 -0.028742794 -0.0240927 -0.079450764 0.024004702 0.05295385
0.04035271 -0.047502685 0.01428222 -0.03346392 0.10703995 0.08286497 -0.02212549 -0.028118186
0.005952159 0.06368944 -0.033946645 -0.03992612 0.07510278 -0.06301307 -0.03501494 0.00015157982
-0.025441721 0.10640028 0.04180933 0.0072233 0.020881938 -0.064129956 -0.023291998 0.005962063
-0.03473898 -0.061541453 -0.05968956 -0.045621127 0.08672199 0.03266209 -0.04420957 -0.028533798
0.04800478 0.04956048 0.0039882967 -0.034456834 -0.02562705 -0.12623581 0.0064898934 0.0014456463
-0.017219428 0.017708149 0.0066382433 0.06181364 0.020804001 0.013763346 -0.012495669 0.03758873
-0.057212207 0.05315979 0.056751266 -0.058196247 0.03963263 -0.02899738 -0.03512289 -0.017900072
-0.013444596 0.018491518 -0.0035114572 0.032344438 0.040752653 0.022023026 -0.03129571 0.036065888
0.0013802261 0.051337257 0.015692657 -0.15584728 0.057219014 -0.027917849 -0.039888486 -0.05721294
00000000: 6a08 52bb e8f9 d6bc be85 a5bd 9838 8abd
00000010: f59d 2a3d 6e6f 75bd cedf 7b3c 10fc 7a3c
00000020: 3430 a5bd 9cee 94bc aa9c dd3b d4cf 07bd
00000030: 91ec a9bc 7d5d aabc 3046 473d 1d5b cc3d
00000040: f6d4 98bc 6aa9 9fbc 3907 efbc aa2c 8c3d
00000050: 6cfd c93b 0e0a 6ebc 24d1 abbc d56f 013d
00000060: 266a 2c3d 7d7e 933d cfc9 863d d0ac eb3b
00000070: 0e2a 3fbc f50e e53c 02e8 55bc 7448 8fbd
00000080: 4bc2 ec3c 5742 aa3c e402 513d 8a7e 64bc
00000090: b29c a4bd 7752 b5ba 926c 613d 8fdd 5a3c
000000a0: 4e33 3dbd 0862 debc 8962 0abe d10f eabd
000000b0: c04b 8a3d 10f1 813d cc5b 843d 9fb2 cf3c
000000c0: 7b60 e2bc e059 f5bc 7dfa 8abd de05 c03c
000000d0: 2f68 113d b210 cabd 1405 103c f93d babd
000000e0: 3097 86bd 6796 e4bc 8821 243c 4b7e a43d
000000f0: cefb 073d 1935 74bd ac89 bd3c 6691 c73b
00000100: 96ba 633c 7473 b0bb 223e 953b b165 cb3c
00000110: d156 7b3b fb9f 19bd 0622 8dbd d12d aebd
00000120: 7db9 8abc 2107 70bd 9323 af3c e862 6d3d
00000130: 58c7 ad3d 8e22 b4bc 3ea8 063c aa0a 393c
00000140: 2d0b 163d 4359 983b d7ce fb3c 187c f53c
00000150: 24cb 9f3d 32b7 ce3c 7af0 69bc c997 12bd
00000160: 4497 703c c416 18bd 6109 a83c cd03 433d
00000170: 62fb 3ebd 6b45 68bd 28e9 d43c a79f aabb
00000180: 9f36 98bc cfcc 4abd 7f82 bbbb d086 ff3b
00000190: b06e 84bd fb68 51bd 62e1 d6bc 82a3 04bd
000001a0: e187 ee3b 9a53 c8bc 8a20 97bd d7bd 943d
000001b0: 02de cd3d 2d10 5a3d 1590 54bd d579 873b
000001c0: 70a5 81bd 0535 d9bc 193b 98bb 2b89 773d
000001d0: c291 dabc 9a98 3e3d 0366 fabc 6eb0 473a
000001e0: d444 b83d 2bc3 043e 89ee a33b 58c5 75bd
000001f0: 74fc 423d 4135 5e3c 7e4e 603b f0b6 f8bd
00000200: 2106 8ebc 1a23 b3bc 2232 1d3d 16b5 6c3d
00000210: aec6 6bbb 115b c83c 4f6a 01bd 23b8 4abd
00000220: 73c7 fabc 0d6a 06bd bc21 a83c 7d6b 603d
00000230: f341 60bc 76e5 dabc 9899 13bd 3149 8abb
00000240: 9fc2 553c 89ce 91bc 6a85 123d abeb fcbb
00000250: 63a1 43bd c355 05bd 6f49 19bd 6c72 a0bd
00000260: 4161 9fbc a06a 2ebc aa98 bcba 46fb f83d
00000270: d1bf 51bd c542 aa3c 44cd 66bd 5385 c8bc
00000280: c58a cbbc 4e23 4fbc 5898 043d 7629 3ebc
00000290: ec50 3a3d 9606 22bd 4d70 d7bc e326 943c
000002a0: 426f 333c fa1a bf3c 8cfc ca3c 268a 74bd
000002b0: b865 043d 1018 38bc d295 a9bd afea 0fbd
000002c0: 52f8 013d 6e66 2a3b 7071 2c3d 0276 ebbc
000002d0: 0e5e c5bc 15b7 a2bd 82a5 c43c 23e6 583d
000002e0: e248 253d 2d92 42bd f9ff 693c 7711 09bd
000002f0: c337 db3d 1cb5 a93d 8440 b5bc 1c58 e6bc
00000300: 540a c33b 9c6f 823d a30b 0bbd 9289 23bd
00000310: 7ccf 993d ff0c 81bd d36b 0fbd 66f1 1e39
00000320: 286b d0bc 64e8 d93d 4340 2b3d 6fb1 ec3b
00000330: 9910 ab3c 9156 83bd dcce bebc 695d c33b
00000340: 764a 0ebd e412 7cbd 0a7d 74bd 38dd 3abd
00000350: 4c9b b13d afc8 053d 1815 35bd b6bf e9bc
00000360: a9a0 443d eeff 4a3d 42b0 823b 9c22 0dbd
00000370: d2ef d1bc f643 01be 2ca9 d43b d77b bd3a
00000380: c20f 8dbc ae10 913c 9f85 d93b 4d30 7d3d
00000390: 276d aa3c a87f 613c a2ba 4cbc a4f6 193d
000003a0: 5957 6abd 14be 593d 0474 683d 305f 6ebd
000003b0: d355 223d ea8b edbc 05dd 0fbd 2ca3 92bc
000003c0: b946 5cbc 867b 973c 7a20 66bb 9a7b 043d
000003d0: 41ec 263d a269 b43c ee2f 00bd d3b9 133d
000003e0: b4e8 b43a 0447 523d e38d 803c 6e96 1fbe
000003f0: 7c5e 6a3d f9b3 e4bc 1c62 23bd 1e58 6abd

fc1.bias f4 [50]
-0.026810525 -0.0054322956 0.013986666 0.014850629 0.041600697 0.02886521 0.02263632 -0.030336928
0.011075416 0.028103895 0.068015724 0.01071417 0.023691544 0.045052327 -0.0030373489 -0.036490973
0.016086893 0.058132768 0.03082885 0.017661082 0.0053576133 -0.008456078 0.04402042 0.031059233
0.0523164 0.03249297 -0.0046719215 -0.033287518 -0.046385933 -0.030709982 -0.0024321687 -0.014858916
-0.025776261 -0.015751416 0.015232036 -0.00755202 0.0024068016 -0.032926142 -0.037528582 -0.02850917
0.04763024 -0.001416461 0.058552388 -0.017058024 -0.028224723 0.0054043154 -0.004556464 0.058053903
-0.0005013797 0.036815424
00000000: bfa1 dbbc 6601 b2bb 5428 653c 0d50 733c
00000010: 7e65 2a3d bc76 ec3c ce6f b93c 2685 f8bc
00000020: a975 353c 243a e63c d44b 8b3d 7c8a 2f3c
00000030: c514 c23c ca88 383d 420e 47bb 8f77 15bd
00000040: a9c8 833c a01c 6e3d c98c fc3c f9ad 903c
00000050: eb8e af3b 5d8b 0abc c24e 343d ef6f fe3c
00000060: b949 563d 5917 053d eb16 99bb 7e58 08bd
00000070: 2dff 3dbd 8093 fbbc 0565 1fbb d072 73bc
00000080: bd28 d3bc 1d09 81bc ca8f 793c ef76 f7bb
00000090: 6ebb 1d3b 90dd 06bd 92b7 19bd 108c e9bc
000000a0: ed17 433d 8ba8 b9ba a1d4 6f3d 45bd 8bbc
000000b0: 8937 e7bc af16 b13b 644e 95bb eec9 6d3d
000000c0: 066f 03ba c5cb 163d

fc2.weight f4 [10, 50]
-0.21901836 -0.25585747 0.17172407 -0.02618472 -0.026484044 0.06918965 0.1961612 -0.18914986
0.1475193 0.13984011 0.20577513 -0.1854335 -0.22113402 0.13902259 0.14253882 0.11398122
-0.12781383 -0.24036638 -0.16021821 0.11354901 0.15750504 -0.0484739 0.1782799 0.15763505
-0.11439129 -0.16311818 -0.20410308 0.02532225 -0.07934255 -0.16936632 -0.112647295 -0.03955751
-0.2623038 -0.17443614 -0.14061898 0.26708984 -0.24051733 -0.14074959 0.21322787 -0.13168213
0.1387634 -0.06509851 -0.061649427 -0.07544279 -0.023527263 -0.122792706 -0.04353279 -0.23146099
0.14574823 -0.17206189 -0.17067428 0.12617755 -0.15604779 -0.15202598 -0.17341502 -0.06100499
0.20159394 -0.18516622 -0.14431807 -0.19028045 -0.025534336 -0.14173765 0.17191562 -0.1932066
0.107032605 -0.032412842 -0.040398736 0.19849575 0.2091701 -0.1684469 -0.094001316 -0.0042085815
-0.12749158 -0.11933199 0.18203221 -0.10619475 -0.087278776 0.02630438 0.22861879 0.10799178
0.1289813 -0.13125223 0.13449849 -0.23431048 -0.0012313493 0.032880347 0.11670036 0.081845246
-0.1599001 -0.11113731 -0.15847811 -0.055743773 0.22149563 -0.08352997 0.24157824 -0.20555337
-0.08363796 0.20917726 0.08146373 0.17377247 -0.18041992 0.18096253 -0.10181686 0.1775076
0.004680689 -0.11035799 -0.13306695 0.08083866 0.13077593 0.17002575 0.03988754 -0.09324069
0.15493388 0.095731534 0.047072418 -0.07921126 -0.10538491 -0.049786624 -0.053878445 0.07042133
-0.09317805 -0.058694612 -0.059046227 0.03227604 0.1388684 0.056273345 -0.12965734 -0.12773398
0.006275437 0.13747007 0.07811865 -0.09383485 -0.13900962 -0.121375114 0.17142117 0.20438775
-0.1346085 0.0969666 -0.06848455 0.21604396 -0.013152048 0.22771738 -0.11187901 -0.010743628
0.12678197 -0.13502994 -0.07302624 -0.14910607 0.14750615 -0.1471684 0.18315665 0.1497201
-0.1238393 0.02017505 0.14091511 0.16774726 -0.14493445 -0.016991904 0.10759612 0.042383462
0.028799258 0.08858756 0.19489108 0.1137121 -0.15366231 0.17352515 -0.053782485 -0.08115053
-0.053744595 -0.18116882 -0.15891057 -0.051195215 -0.12035158 -0.11471928 -0.17400515 -0.02085612
-0.16216154 0.17734358 -0.09197202 0.07452289 -0.13174412 -0.1936354 0.09797928 0.11566772
0.18857025 0.036402576 -0.19848013 0.04248099 -0.1165344 0.2065125 0.09320257 0.074169695
-0.18269561 -0.029654067 0.12152044 0.16929384 -0.1676982 0.012437509 -0.120729364 -0.035794046
0.043213524 -0.17271718 -0.19117606 0.17967218 -0.10587507 -0.073139936 -0.06457946 0.1001254
0.13755669 -0.2230633 -0.07888329 0.1042426 -0.059166122 -0.31088683 -0.24991241 -0.2039224
0.11551278 0.22676237 0.25564232 -0.045915864 0.22183563 0.2021589 -0.14700437 -0.22727565
-0.10982049 0.23783198 0.077067286 -0.054222077 -0.123019256 -0.06934607 0.10460384 0.043156236
0.037895318 0.08427238 -0.14490245 -0.025056696 0.06312064 0.06761701 0.18452415 0.011810367
-0.29717222 -0.16666208 0.07072084 0.15944749 -0.06580563 -0.056585107 0.22933275 0.05385131
-0.23435815 0.17551388 0.16606623 0.047249045 0.1480855 -0.17463371 -0.023767186 0.12362764
00000000: 5946 60be c0ff 82be 6fd8 2f3e 5781 d6bc
00000010: 11f5 d8bc 4eb3 8d3d 7bde 483e 80b0 41be
00000020: 4d0f 173e 3f32 0f3e b7b6 523e 48e2 3dbe
00000030: f570 62be f05b 0e3e b2f5 113e fc6e e93d
00000040: a1e1 02be 9b22 76be 3e10 24be 628c e83d
00000050: 0049 213e 918c 46bd 028f 363e 156b 213e
00000060: fb45 eabd 7408 27be 6600 51be 9b70 cf3c
00000070: 597e a2bd 5d6e 2dbe a0b3 e6bd 0e07 22bd
00000080: af4c 86be 639f 32be 6cfe 0fbe 00c0 883e
00000090: 2d4a 76be a920 10be 6858 5a3e aed7 06be
000000a0: fe17 0e3e 5e52 85bd 1c84 7cbd c081 9abd
000000b0: 3fbc c0bc be7a fbbd 704f 32bd 1c04 6dbe
000000c0: 063f 153e fe30 30be 3dc5 2ebe b034 013e
000000d0: feca 1fbe b3ac 1bbe b593 31be 5ee0 79bd
000000e0: a46e 4e3e 379c 3dbe 1ec8 13be e1d8 42be
000000f0: 622d d1bc ad23 11be a60a 303e f3d7 45be
00000100: e933 db3d 54c3 04bd 2579 25bd 7842 4b3e
00000110: b030 563e 587d 2cbe c383 c0bd 24e8 89bb
00000120: 278d 02be 5564 f4bd a766 3a3e a27c d9bd
00000130: 37bf b2bd 487c d73c 0b1b 6a3e cb2a dd3d
00000140: ad13 043e fc66 06be f9b9 093e 16ef 6fbe
00000150: 3a65 a1ba 8bad 063d 9900 ef3d 7b9e a73d
00000160: dabc 23be f59b e3bd 1648 22be 9553 64bd
00000170: c0cf 623e c311 abbd 4960 773e 957c 52be
00000180: 614a abbd 9032 563e 75d6 a63d 69f1 313e
00000190: 00c0 38be 3e4e 393e 5c85 d0bd 8dc4 353e
000001a0: 7760 993b 5f03 e2bd b442 08be bd8e a53d
000001b0: 20ea 053e 3b1b 2e3e 1e61 233d faf4 bebd
000001c0: fda6 1e3e e50e c43d 02cf 403d 8339 a2bd
000001d0: 0bd4 d7bd 0fed 4bbd a5af 5cbd 0f39 903d
000001e0: 22d4 bebd c369 70bd 75da 71bd e233 043d
000001f0: 8533 0e3e e17e 663d e5c4 04be b2cc 02be
00000200: 2ea2 cd3b f4c4 0c3e acfc 9f3d 7c2c c0bd
00000210: 8a58 0ebe 8493 f8bd 0889 2f3e 064b 513e
00000220: d0d6 09be 6d96 c63d a141 8cbd a13a 5d3e
00000230: b07b 57bc bf2e 693e d320 e5bd 0b06 30bc
00000240: 22d3 013e 4a45 0abe c88e 95bd 43af 18be
00000250: da0b 173e 50b3 16be 6b8d 3b3e 3a50 193e
00000260: 759f fdbd 2546 a53c 0d4c 103e f0c5 2b3e
00000270: b269 14be 9b32 8bbc 5b5b dc3d 489a 2d3d
00000280: 6cec eb3c 656d b53d 8791 473e e4e1 e83d
00000290: a759 1dbe 94b0 313e 064b 5cbd 4032 a6bd
000002a0: 4b23 5cbd 5284 39be 74b9 22be 13b2 51bd
000002b0: e47a f6bd f1f1 eabd 682e 32be 74da aabc
000002c0: ad0d 26be 8e99 353e d45b bcbd 759f 983d
000002d0: eee7 06be 5c48 46be 5ca9 c83d 33e3 ec3d
000002e0: 8f18 413e de1a 153d 603e 4bbe 8c00 2e3d
000002f0: 96a9 eebd 0378 533e fde0 be3d 48e6 973d
00000300: 8f14 3bbe 16ed f2bc b5df f83d 5d5b 2d3e
00000310: 14b9 2bbe b2c6 4b3c f540 f7bd c79c 12bd
00000320: aa00 313d c6dc 30be a8c3 43be fcfb 373e
00000330: 07d5 d8bd 64ca 95bd 3c42 84bd 8c0e cd3d
00000340: a9db 0c3e b56a 64be 908d a1bd 257d d53d
00000350: 2d58 72bd 8f2c 9fbe 0ae9 7fbe 09d1 50be
00000360: f791 ec3d 6534 683e 8de3 823e 4612 3cbd
00000370: e128 633e be02 4f3e 5088 16be f3ba 68be
00000380: 91e9 e0bd 3a8a 733e 74d5 9d3d f817 5ebd
00000390: 85f1 fbbd 5005 8ebd 8a3a d63d 98c4 303d
000003a0: 1f38 1b3d ff96 ac3d 4f61 14be b343 cdbc
000003b0: 6545 813d c97a 8a3d e6f3 3c3e 4580 413c
000003c0: f526 98be 77a9 2abe 16d6 903d 3446 233e
000003d0: 1ac5 86bd c9c5 67bd 34d6 6a3e 3193 5c3d
000003e0: 95fb 6fbe e9b9 333e 440d 2a3e 3788 413d
000003f0: baa3 173e 2ed3 32be 67b3 c2bc 7d30 fd3d

fc2.bias f4 [10]
0.07587217 0.17060214 -0.0602642 0.004740202 0.03140938 -0.0387415 0.10908237 -0.038570642
0.10561453 0.11321118
00000000: de62 9b3d 54b2 2e3e 98d7 76bd b253 9b3b
00000010: 1fa7 003d 68af 1ebd 9466 df3d 40fc 1dbd
00000020: 6e4c d83d 43db e73d
